ml-agents/results/first3DBallRun/3DBall/3DBall-499858.pt (torch, 450801 bytes, 44 tensors)

network_body.observation_encoder.processors.0.normalizer.running_mean f4 [8]
00000000: 3dcb abb9 998e abba 041f d9bc 5771 4340
00000010: 04af 8b3e f2b0 f6ba 5db9 86be a330 303b
-0.00032767086 -0.0013088762 -0.026504047 3.0537927 0.27281964 -0.0018821044 -0.26313296 0.0026884458

network_body.observation_encoder.processors.0.normalizer.running_variance f4 [8]
00000000: 4c1f 8744 85cb 8b44 4c25 1a48 2719 7246
00000010: 7b05 4048 b5a4 c547 8482 2b48 59ce d747
1080.978 1118.36 157845.19 15494.288 196629.92 101193.414 175626.06 110492.695

network_body.processors.0.normalizer.running_mean f4 [8]
00000000: 3dcb abb9 998e abba 041f d9bc 5771 4340
00000010: 04af 8b3e f2b0 f6ba 5db9 86be a330 303b
-0.00032767086 -0.0013088762 -0.026504047 3.0537927 0.27281964 -0.0018821044 -0.26313296 0.0026884458

network_body.processors.0.normalizer.running_variance f4 [8]
00000000: 4c1f 8744 85cb 8b44 4c25 1a48 2719 7246
00000010: 7b05 4048 b5a4 c547 8482 2b48 59ce d747
1080.978 1118.36 157845.19 15494.288 196629.92 101193.414 175626.06 110492.695

network_body._body_endoder.seq_layers.0.weight f4 [128, 8]
00000000: eb06 233f c02e 373f 1cd0 3e3e dc1c 55bd
00000010: dcb8 be3e 68f1 08bf e425 bbbe 3977 583e
00000020: 8a8c ae3d 8039 8e3e 55da 96bd 1d28 37be
00000030: 0239 a8be 6fab 50be 31ca ba3e c838 30bf
00000040: 0006 6cbe 55aa 243c 7a0c c73e 4535 b9be
00000050: 92de a03c 3b56 293f 4c99 0ebd 1dc9 453d
00000060: 50b4 a63e 43ec 7b3e 35d4 6bbd 8b8a 8dbe
00000070: 235b 81bd 6132 debd 608c dcbe 70ae 06bf
00000080: 0a8f 55be fff3 0d3d ab50 d13e 17d1 15be
00000090: 7d99 093e 2169 b83e 9482 483e 937f c2be
000000a0: 10b5 743e f20d ea3d f7d7 12be f456 e4bd
000000b0: 1f3f 47be ee2d e5bd 672f 593d 483c 7bbe
000000c0: f694 6f3e 4a9b be3e d38c 483f 57e4 313f
000000d0: f974 26be 1e4d 51be 185e 843f 208f 6f3e
000000e0: d7a1 ecbd e5a9 a2bd 8788 be3e bcd8 2ebe
000000f0: efce 48be 1913 bb3e a309 ae3d d9ae 27bf
00000100: af58 273e c349 fd3e cd58 a33d a433 a63e
00000110: b8d5 bbbe f92a 14bf d5e9 0dbf 72dc a6be
00000120: 1274 d43d 4e8e 303e a0ba 06bf c1f8 08bf
00000130: a592 6cbe f1ff 57be 9047 b93e 2342 7f3e
00000140: 97ed bcbe 1321 c63e 0c1b 3a3e 42b0 2d3e
00000150: 2729 4cbc 5056 803e a95b 24bd 47d2 363f
00000160: 9859 273f 19d8 8f3e 3d60 28be 5b3a 843e
00000170: 1b0b e73e ecf1 cebe 61db ee3e f7d4 303e
00000180: c7be 9abd 7287 373f 40b3 c3be 3eb2 b63e
00000190: 9e93 4fbe 0847 de3e f8a2 a6be 4277 ec3d
000001a0: 2106 1bbe a5ca bd3e a255 dfbd d4b4 ef3c
000001b0: c5e2 c0be 05a5 843d 3991 693a 940d f23e
000001c0: 9ed7 38bf e316 afbd de4c 75be b866 a1be
000001d0: 891a 783c 1bd6 f33c 03fd 01bf 7e47 88be
000001e0: a743 003f f8c0 043f 4036 ffbd 9338 8dbe
000001f0: aa9f 89bd f2b1 b8be 28ab 70be cf9e 8f3e
00000200: bcac 9cbe 18d8 923e 02c0 a2bd 5d05 1abe
00000210: 3af1 cfbe 2571 b6be 0cd6 7f3e a497 873e
00000220: 4941 f93e 2694 063f 0382 17bc 073b 89be
00000230: 3507 123f 27a9 2dbf 9a3a 1d3c 1977 1dbd
00000240: 0328 19bf 50a6 93be 7690 29bf f27b 6fbf
00000250: 42d4 18bf 4fe6 98be 8276 ccbe 9c8c 963e
00000260: 53bd df3c 3084 72bc 880c c23e 5656 ad3c
00000270: 5636 673e ea41 02be d7eb af3e 9316 153d
00000280: 4899 013e a1d0 85be 7434 36bd 9706 1dbd
00000290: 55a4 92be dd89 5fbd 4f2d 223f e916 db3e
000002a0: c4fa c9bd 4b16 363e 3942 113f b85d d2be
000002b0: 1cbc 25bd 3edd 92be f8b2 b43e 4dbf b43e
000002c0: 481e 2e3f 58f8 ffbe 6e72 1c3e d8fa 103f
000002d0: 0c45 29be 0c90 ddbd 673f bcbd 6172 36bb
000002e0: dcd0 7f3f a838 bf3e be5e edbc c2aa 30be
000002f0: 9b36 6cbe b7de 613e 6e36 98be a477 25bf
00000300: c6d9 18bf 6390 17bd 6299 e23c 0f5d 413f
00000310: 0e87 04bf b66e bfbe 498c 683c 9132 5e3b
00000320: e3f5 a73d 1ef3 c3be 76d4 6d3f ede7 85be
00000330: 27bc 6a3e 8643 843c 4715 08be d433 23be
00000340: a4e1 b93b 4aab 60be 4d95 f2be 8c82 9f3d
00000350: 2c0f 1cbf c7eb 9e3b c43e 673d 65c2 9dbe
00000360: 3d18 36be 33d8 cebe 370e 293f c977 403e
00000370: c077 2d3e 5585 a4bd af2f fcbe c986 a4be
00000380: 8483 12be 3e0e 213e 5271 343e 3711 febe
00000390: 7a75 d2be fb07 dc3e 51d4 163f 03e2 0a3f
000003a0: 0a12 20be 6375 a83e a8bb 6cbe 8b4e a4be
000003b0: 16f0 fb3d ee70 90bd e7a5 16bf 6977 0ebe
000003c0: e9da b93d 96d4 04ba 9683 81be a005 723e
000003d0: 806c 01bf 326e 43be 6394 2dbf cd00 743d
000003e0: 49b9 263d 0c73 2bbe 10e7 88bc 392c 3c3f
000003f0: 7801 2a3d f08f 673e a9d4 31bd 2560 24bf
0.6368243 0.7155571 0.18634075 -0.052029476 0.37250412 -0.53493357 -0.36552346 0.2113923
0.085228994 0.27778244 -0.07365862 -0.17886396 -0.32855994 -0.20377897 0.36482385 -0.6883664
-0.23049164 0.010050376 0.38876706 -0.36173454 0.01963738 0.661472 -0.034814164 0.0482875
0.32559443 0.24601845 -0.057575423 -0.27644762 -0.06316211 -0.10849453 -0.43075848 -0.5260992
-0.20855346 0.03465652 0.40881857 -0.14630543 0.13437457 0.36017707 0.19581062 -0.37987956
0.23897195 0.11428441 -0.14340197 -0.111493975 -0.19457673 -0.11190401 0.053023722 -0.24534714
0.23396668 0.3722785 0.7833988 0.69489044 -0.16255559 -0.20439574 1.0341215 0.23394442
-0.11554306 -0.07942561 0.37213537 -0.17074865 -0.19610189 0.36538008 0.08497932 -0.6550117
0.16342424 0.49470338 0.07975922 0.32461274 -0.36686492 -0.5787807 -0.55434924 -0.3259006
0.10373701 0.17241785 -0.5262852 -0.5350457 -0.23102815 -0.21093728 0.3618741 0.24927573
-0.36900017 0.3869711 0.1817438 0.16961768 -0.012460983 0.2506585 -0.040126476 0.7141461
0.65371084 0.28094557 -0.16442962 0.25825772 0.4512566 -0.40418947 0.46651748 0.1726874
-0.07555919 0.7169105 -0.38222694 0.35682863 -0.20271155 0.43413568 -0.3254621 0.11546184
-0.15139057 0.37068668 -0.10905005 0.02926103 -0.3767301 0.064767875 0.00089098845 0.47275984
-0.72204006 -0.08549287 -0.23955104 -0.3152368 0.015143045 0.02976518 -0.5077669 -0.26617044
0.5010323 0.51856947 -0.12461519 -0.27582225 -0.06719907 -0.36073261 -0.23502791 0.2805085
-0.30600536 0.2868049 -0.07946779 -0.15041108 -0.4061373 -0.35633197 0.24983996 0.2648288
0.4868262 0.52569807 -0.009247306 -0.26802847 0.5704225 -0.6783623 0.009596491 -0.03844366
-0.5982668 -0.28837824 -0.66236055 -0.935485 -0.5969888 -0.29863212 -0.39934164 0.2940415
0.027311957 -0.014802024 0.37900186 0.021159332 0.22579321 -0.12720457 0.3435962 0.03639848
0.12656128 -0.26135734 -0.044483617 -0.038336363 -0.28641 -0.054574836 0.63350385 0.42790917
-0.09862283 0.17781942 0.5674167 -0.41087127 -0.0404626 -0.2868442 0.35292792 0.353022
0.68014956 -0.4999416 0.15278026 0.5663276 -0.16530246 -0.108184904 -0.091917805 -0.0027839171
0.9992807 0.37347913 -0.02897584 -0.17252639 -0.23067705 0.22057615 -0.29729027 -0.6463568
-0.59707296 -0.037002932 0.02766103 0.7553262 -0.5176858 -0.37389153 0.014193603 0.0033904652
0.08201196 -0.3827142 0.92902315 -0.26153508 0.22923337 0.016145479 -0.13289367 -0.1593774
0.0056726504 -0.21940342 -0.47379532 0.07788572 -0.6096065 0.004849884 0.056456342 -0.30812374
-0.17782684 -0.40399322 0.66037315 0.18795694 0.16940212 -0.080332436 -0.4925513 -0.32134083
-0.14307982 0.15728089 0.17621353 -0.4962251 -0.41105253 0.4297484 0.5891772 0.54251117
-0.15631881 0.3290206 -0.2311846 -0.32091174 0.12301652 -0.0705279 -0.58846897 -0.13912739
0.09074957 -0.0005067078 -0.25295705 0.23634958 -0.5055618 -0.19085005 -0.67804545 0.059571076
0.040704045 -0.16743106 -0.016711742 0.7350498 0.041505307 0.22613502 -0.0434157 -0.64209205

network_body._body_endoder.seq_layers.0.bias f4 [128]
00000000: 108f a53c 6676 92bc 9011 55bd 5674 e4bd
00000010: 9f1e 3dbd df45 2d3c 4a8a 6239 84c2 9ebc
00000020: eeb8 83bd a812 5fbd a72f 023d a320 a23c
00000030: 1171 5cbb 93d0 32bc c0fe a93b 4a25 47bd
00000040: 5d9e 55bd ad83 b5bb b046 b8bc 25db af3c
00000050: 4b92 a23b aa99 85bd 8f21 df3c bc46 d2bd
00000060: 9950 763b 084c 74bb ad75 94bd 87e3 a73b
00000070: 6536 ee3b 01e1 6abd fd06 d7bc 5069 683c
00000080: cdfd db3b 4049 e6bb 7e0b ebbc 6f56 8fbc
00000090: 36ed 273d ba5c 973c 4d2b 9a3c e6f3 9a3c
000000a0: 04e1 273c 23db 9c3c d9fb 4a3b 0a62 393c
000000b0: 058d f9bc cdc1 4a3c bd05 1c3d 5e1e 40bd
000000c0: 8e25 5abd 6eba 2bbd a60d aebc c44a 673c
000000d0: d9ca 953c 864f 003b db9d bebd 58d0 483c
000000e0: 07f5 33bc 66c1 303c e37a e53b 899c febc
000000f0: e79d 333d 07b2 4d3d dda5 20bb 6d17 16bd
00000100: a84d 5cbd 18dd 80bd 11ff ec3c 2685 53bd
00000110: b32d e53c beec b93b 156b cdbd 0d2b f0bb
00000120: 9754 d0bc 8362 ecbc c3a9 55bd 4fd8 ffbc
00000130: a7fb 9ebb fd6b c73b c647 0ebc 85c5 03bd
00000140: 1e91 bbbc ed3d a43c 9bbc 28bc 4b09 56bd
00000150: 2d7a 91bd a984 733b 82fb b9bc 01f0 cbbc
00000160: f104 1b3d 6317 6bbc f737 5e3c ba84 c03c
00000170: 38fa 0c3d ba6a c739 d595 e33c 4232 0abd
00000180: 6651 c23c cd15 b03c d179 353d aa43 9bba
00000190: 6b44 6e3c 8527 1bbb 56f4 31bd e699 e93c
000001a0: 5dc0 943d 9f4d 0f3d 1b42 d03a 208d f0bc
000001b0: ff4f 89bc 43a3 2abd bd03 c43c d9e3 e6ba
000001c0: a721 d53c 2379 0a3b de50 143d 7c4b 23bd
000001d0: 51d9 48bc 81bd dabb ec25 223d 4827 343d
000001e0: 2b7d 7b3d d02a caba a451 31bc d284 b23a
000001f0: 5e64 69bd 86b7 29bd 760b 30bd cd24 d5bb
0.02020982 -0.017878722 -0.052018702 -0.11155002 -0.04617178 0.010575741 0.00021604556 -0.019379862
-0.06431757 -0.05446115 0.031783726 0.019790953 -0.0033636729 -0.010913986 0.0051878393 -0.048619546
-0.05215298 -0.0055393786 -0.022494644 0.021466801 0.004961287 -0.0652345 0.027237682 -0.10267398
0.003758466 -0.0037276763 -0.072490074 0.005123559 0.007269668 -0.057343487 -0.02624845 0.014185265
0.006713605 -0.007027775 -0.028692003 -0.01749727 0.040997706 0.018476833 0.018819476 0.018915128
0.010246519 0.019147461 0.0030972867 0.011314878 -0.030462751 0.012375307 0.03809141 -0.04690396
-0.05325847 -0.04192584 -0.021246742 0.014116947 0.018285202 0.001957865 -0.09307452 0.012256704
-0.010983712 0.010788297 0.0070031746 -0.031080501 0.04385176 0.05021861 -0.0024512925 -0.036643434
-0.053784996 -0.0629217 0.028930219 -0.051640652 0.027975893 0.005673974 -0.1003019 -0.007329351
-0.02543096 -0.028855568 -0.05216385 -0.031231074 -0.0048517766 0.0060858713 -0.008684104 -0.03217079
-0.022896346 0.02004906 -0.010298873 -0.052254956 -0.07103381 0.003715793 -0.022702936 -0.024894716
0.03784651 -0.014348838 0.013563148 0.023500789 0.034418315 0.00038035755 0.027781406 -0.033739336
0.023720454 0.02149477 0.044305626 -0.0011845727 0.014542679 -0.0023674679 -0.043445908 0.028515767
0.07263253 0.034986135 0.0015888842 -0.029364169 -0.016761778 -0.041659605 0.023927564 -0.0017615511
0.026017023 0.0021129332 0.036209933 -0.03986691 -0.0122588435 -0.0066754227 0.039586946 0.043982774
0.061398666 -0.0015424136 -0.010822687 0.0013619906 -0.056980483 -0.041434787 -0.04297968 -0.006504631

network_body._body_endoder.seq_layers.2.weight f4 [128, 128]
00000000: 697b 343e 3c78 03be d129 06bc a91e b6bd
00000010: 5c69 49be 41a8 19be 7a51 813d 5b35 d0bc
00000020: 7350 183e 7c1c aabd 83fc e03d 6cf3 44bd
00000030: 18fe d93b 0e63 963d d7c0 073e dc34 a6bd
00000040: 92f5 ab3d 8700 03be d86b 15be 0eb5 4dbe
00000050: 5cf3 26be 8a92 49bc bd61 84bd bbc0 123d
00000060: b69e 99bb 7eda 23b9 337c c7bd 1521 37bd
00000070: acde 133d 4ff0 9b3d 1e57 65bc 488c 58bd
00000080: 2179 72bd c559 ccbd 6109 fdbc 2257 4abd
00000090: e114 5fbe ed0c 42bc 2a36 a8bd 1354 293b
000000a0: 50fa c1bb b535 e5bd f4ef 3dbc 9e3b 22bd
000000b0: 4c7c 0e3e da41 b5bd a575 b1bd e790 b1bd
000000c0: 0882 d03d 8c2f f73b 6cde 02be 7c88 c0bb
000000d0: 902b 88bc c481 4f3e 76b8 a2bd 6cc8 f8bd
000000e0: bce0 9ebd 754c aa3d e2d7 7fbd a535 153c
000000f0: 7388 f43c ecea a7bd 1ce7 49be eaa6 c2bd
00000100: 85f3 173d 15b8 193d bb91 ac3d 1e1a 4abd
00000110: 13e1 02be 286b 97bd 28c8 c6bd 3584 323d
00000120: 4b78 d03d c9a1 04bd c33e 303d 0b6c 2cbd
00000130: 8e14 7bbc 1a18 bb3d e767 16bd 1d00 0f3b
00000140: 44c4 9fbb 0170 c5bd 649c 72bc 2fe5 b9bd
00000150: 7673 c1bd dad2 9abd 4233 a6bc c6b0 48bc
00000160: 3ef5 1f3d 2fe4 0e3e 57df eabc 4cca d43d
00000170: 48da afbd 3a30 503d 7aac b8bd 1da8 cd3c
00000180: 33c7 0fbd 4dc0 02bc ab25 e1bd c066 103e
00000190: 4b99 52bc 3997 82bc e93d 053e c870 b8bd
000001a0: a224 89be d72b 90bd 2de1 05bd e5cb 18bd
000001b0: ea01 87bd 5709 5d3c 1bbb 23bd 5195 67be
000001c0: b2e2 293e b416 ff3d 3f9a 783d 4409 003e
000001d0: 95ce 47be 4f2b cdbd 61c7 e83d 8ec4 fb3d
000001e0: e1b2 95ba 346f 233d a524 1d3d e8ed d33d
000001f0: a6d1 443d 68ed cbbd 0590 be3d 68f7 023e
00000200: 920b 6abe e7f6 2fbd 21bf 13be 020d 0ebe
00000210: e1cd 3ebe e637 ea3c 45eb 7ebd 9772 fdbc
00000220: 835e fcbd a92b 3bbd 4acc 143e c774 3439
00000230: 162d 923c 225f 9e3c 43e8 a93d 48ae 74be
00000240: 6fc1 25bd f150 00bd 58f6 0e3e 13f2 5cbe
00000250: af57 6abd 238f e83d 0117 03bd cfae 233e
00000260: d8d8 e6bb 614a 71bc 25d7 513b d3cc 773d
00000270: 2716 ce3c d110 efbd 023b abbd b1aa 6b3d
00000280: d271 90ba f344 933d aaef 873b 226f b8bd
00000290: 5ce2 b1bd 4aa4 c33b e056 a1bd bfc0 da3d
000002a0: 8d35 30bd 9017 88bd 3d47 4d3e 235d 5ebc
000002b0: 3fbc 9bbd 2d08 08be 6936 36bd e12d b5bd
000002c0: 7fef c03d 142a f13d 0011 c93d ab55 b73c
000002d0: ef65 8a3b 5e50 30bc 1bfd 90bd c2d7 e53d
000002e0: 171a fdbc 95db 663d d031 2e3c 2997 cf3d
000002f0: 4873 ad3d 42f8 4d3d 07b4 9dbd 64c9 203e
00000300: 8c28 e1bc 606b 8d3d 4748 69bc 9ac7 efbd
00000310: 39b2 063e 7e20 aa3c 0e50 e0bd 2b14 1f3e
00000320: 53dd 803c 9fc5 823d 3afe bfbd bb3b a03d
00000330: 9146 fdbd 8f6d e5bd e3ab edbd 4906 e73a
00000340: 42c2 a63c b293 033e 3c49 81bd 2c1e f7bd
00000350: 1e71 73bc ad30 9e3d c487 843d 7ebf 9b3d
00000360: d171 dbbc 55d9 07be 7c13 0fbe a020 943c
00000370: 5be8 10bd 267d e9bc 1d0f cf3d 8364 de3d
00000380: e506 c93c a9a3 443d 0ce4 19bd 5109 18be
00000390: 8465 a13d 0019 1f3e dbb7 5bbc 5961 f1bd
000003a0: 66c5 8cbd 4d6d ca3b 915b aabd c71c f53d
000003b0: 721f 923d 5aab 29bd caf7 3b3d 3de3 f23d
000003c0: 8ac3 20bd 515a 4a3d 1021 933d 0cc8 2f3d
000003d0: f622 0fbd ff2c e8bb ba89 e03c fb78 953e
000003e0: b964 eb3d 9515 853d 7e1b 563d eb4b afbd
000003f0: a0ee 83bd 51a6 3bbe 3f6f aabd 23c2 203d
0.17625202 -0.12838835 -0.008188681 -0.08892567 -0.19669098 -0.1500559 0.063143685 -0.025416067
0.14874439 -0.08306214 0.10985663 -0.048083708 0.006652605 0.07343112 0.13257156 -0.08115551
0.08396448 -0.1279317 -0.1459192 -0.20088598 -0.16303772 -0.012303004 -0.064639546 0.035828333
-0.0046881093 -0.00015626286 -0.09740486 -0.044709284 0.03610103 0.076141946 -0.013997821 -0.052868158
-0.05919755 -0.0997806 -0.030888261 -0.049399503 -0.21785308 -0.011843902 -0.08213456 0.0025837466
-0.005919732 -0.111918844 -0.011592854 -0.039607637 0.13914603 -0.08850451 -0.08665017 -0.08670216
0.101810515 0.00754351 -0.1278016 -0.005875645 -0.016622335 0.20264345 -0.079453394 -0.121476024
-0.077577084 0.08315364 -0.06246174 0.009107028 0.02985022 -0.08199105 -0.19717067 -0.095044926
0.037097473 0.03752907 0.084262334 -0.049341314 -0.12781172 -0.07393485 -0.097061455 0.043583114
0.10179194 -0.032380853 0.043028604 -0.042095225 -0.015324725 0.091354564 -0.036720183 0.0021820136
-0.0048756916 -0.09640504 -0.014807794 -0.090769164 -0.094458506 -0.07559748 -0.020288114 -0.012249177
0.03905224 0.13954233 -0.02867095 0.103901476 -0.08586556 0.050827242 -0.09017272 0.025104577
-0.03510208 -0.007980418 -0.10993513 0.14101696 -0.012853931 -0.01594125 0.13011898 -0.09005886
-0.2678576 -0.07039612 -0.032685447 -0.037303824 -0.06592162 0.013490996 -0.03997336 -0.22615553
0.16590384 0.12455502 0.060693976 0.12503535 -0.19512399 -0.10018026 0.113661535 0.12293349
-0.0011421108 0.039900973 0.038365025 0.103481114 0.0480515 -0.09957391 0.09304813 0.1278969
-0.22855976 -0.042960074 -0.14428379 -0.1387215 -0.18633224 0.028591108 -0.06223609 -0.03093843
-0.12322714 -0.045695934 0.14531055 0.0001720964 0.017843764 0.019332472 0.082962535 -0.23894608
-0.040467676 -0.03132719 0.1396116 -0.21576719 -0.057212528 0.11355426 -0.03200436 0.15984653
-0.0070448928 -0.014727206 0.0032019105 0.06049807 0.025157047 -0.11673129 -0.08360864 0.05753583
-0.0011020249 0.071908854 0.004148443 -0.09005572 -0.08685753 0.0059705125 -0.07877898 0.10681295
-0.04301982 -0.06645119 0.20046706 -0.01357201 -0.076042645 -0.13284369 -0.044485483 -0.08846641
0.0942068 0.11775604 0.098176956 0.022379717 0.004223577 -0.0107613485 -0.07079526 0.11222793
-0.03089623 0.056361753 0.010631993 0.101362534 0.08469254 0.050285585 -0.07700353 0.15701824
-0.027485155 0.06905246 -0.014238424 -0.11707993 0.13153924 0.020767447 -0.10952769 0.15535037
0.015730536 0.063853495 -0.09374662 0.07823893 -0.12366975 -0.11202537 -0.116050504 0.0017625774
0.020356301 0.1284931 -0.063127965 -0.12066302 -0.014858512 0.07724128 0.06471208 0.076048836
-0.02678767 -0.132665 -0.13972276 0.018081963 -0.03537784 -0.028502058 0.101103045 0.10859015
0.02453942 0.04800764 -0.037570998 -0.14847304 0.07880691 0.1553688 -0.013410534 -0.11786146
-0.06873588 0.0061775804 -0.08318246 0.119683795 0.07134904 -0.04142318 0.045890607 0.118597485
-0.03924898 0.04940254 0.071840405 0.04291539 -0.03494545 -0.007085442 0.027409423 0.29193863
0.11493821 0.06498257 0.052272312 -0.08559402 -0.064419985 -0.18325163 -0.08322 0.039247643

network_body._body_endoder.seq_layers.2.bias f4 [128]
00000000: e73c 81bc 86bb 8f3b a4ef 833c ac3b 8d3d
00000010: a3d8 c63c adf1 0f3d 141a 61bc 4614 c53c
00000020: ecd6 b8bc b66c 68bd 6dc7 663d 4690 37bd
00000030: 5675 eebc 733d bb3c a165 1a3c e94a d8bb
00000040: c0cb 1f3c 5a38 883a c50d c73c d206 18bc
00000050: deca 123d 609e ad3b 5011 27bd b21d 773d
00000060: da46 48bd 6df7 cf3c 7d85 0e3d 0188 3abd
00000070: a694 81bc d3d3 063d 0e89 833d 9ae6 0e3d
00000080: d8d4 28bd 4417 1dbd c65d ad3c 3063 0fbd
00000090: 9a3a e43c 245d 433d 25f3 bdbc 7946 133d
000000a0: f3a8 4abb 60fa 11bd bcc4 abbb 677c 273b
000000b0: cb08 8fbc 07a3 3c3c 0a65 5ebb d2d2 1e3d
000000c0: 4ccb be3b e8b6 83bc b089 29bd 3c83 34bc
000000d0: a2d9 1c3b 7e3d 2fbd 91f5 0cbd 3d27 bdbc
000000e0: 270b 7f3c 4433 a13c d131 053d ed39 6ebc
000000f0: a31d aebc 7318 0dbd 47a9 653c 71c6 8e3b
00000100: d3db d73c 52a2 c83c fd46 3ebc 6160 123d
00000110: 78bf d63c f855 7f3c ae83 ab3c ae90 01bd
00000120: 42cc 91bb fd8f 973d 18a9 1c3c b9ed 4a3c
00000130: 7b42 ebbb 1514 bf3c cfd2 033d f22c f2bb
00000140: 71f9 f3bb 0f96 32bd 3bc8 1bbc 1051 6abc
00000150: 066c 0ebd 796f f8bc 7dc7 023d 3af1 e33c
00000160: 95f9 61bc 11d3 d73c 0112 863c ef1c 35bd
00000170: 78cd c9b9 2e29 8e3b 07dc 8e3c 4c46 b03c
00000180: 0a4e a93c cb65 723b 34ea 003d 9a34 efbc
00000190: a570 833d d8ff 10bd 5b7d 7dbc c171 443c
000001a0: 265f 313b 4241 d8bc 725e 893d 31bc 17bb
000001b0: 11c3 293b eb6a d33c a4eb d63b 7c1a cabc
000001c0: 6291 d2bb b52e 103c 1b5d 91bc 9163 1bbd
000001d0: 2396 c1bc 4e72 b0bc 875a 95bc d442 e5bc
000001e0: 3d4d cf3c 9bd3 d1bc 67c0 db3c e708 c3bc
000001f0: c1e1 f63c d10b 503c 50c3 a9bb dda1 d4bb
-0.01577611 0.004386368 0.01610548 0.06896147 0.024273222 0.03514259 -0.013739128 0.024057519
-0.02256342 -0.0567443 0.05634253 -0.044815324 -0.029108685 0.02285645 0.009423644 -0.006600727
0.009753168 0.0010392771 0.024298558 -0.00927897 0.035838 0.005298421 -0.040787995 0.060331054
-0.048895694 0.025386536 0.034795273 -0.04553986 -0.015817951 0.032916855 0.064226255 0.034887888
-0.04121861 -0.038352266 0.021162879 -0.035006702 0.027859975 0.047696248 -0.02318723 0.03595588
-0.0030923455 -0.035639167 -0.0052419584 0.0025556327 -0.017460248 0.011513478 -0.0033934736 0.038775273
0.0058225747 -0.016078427 -0.041391075 -0.011017617 0.002393343 -0.042783253 -0.034413878 -0.02309
0.015566624 0.019677766 0.03251821 -0.014540178 -0.021254366 -0.034447145 0.01401741 0.004357152
0.026349938 0.024491463 -0.011613605 0.035736445 0.026214346 0.015584461 0.020936813 -0.031632118
-0.0044493983 0.074005105 0.0095617995 0.012385779 -0.007179556 0.023325006 0.032183465 -0.007390612
-0.007445507 -0.04360014 -0.009508188 -0.014301553 -0.034770988 -0.030326592 0.031928528 0.027824987
-0.013792415 0.026345761 0.016366007 -0.044217046 -0.00038490794 0.004338405 0.017438902 0.021517895
0.020667095 0.0036986943 0.031473354 -0.029199887 0.064179696 -0.03540024 -0.015471782 0.011990012
0.002706477 -0.026398305 0.06707467 -0.0023152942 0.0025903622 0.025807818 0.0065588523 -0.024670832
-0.0064260224 0.008800198 -0.017744591 -0.03793675 -0.023631161 -0.02153888 -0.018231643 -0.027985968
0.025305385 -0.025613597 0.026825143 -0.023807956 0.030136945 0.01269813 -0.005180754 -0.006489022

action_model._continuous_distribution.log_sigma f4 [1, 2]
00000000: ce97 16be c674 2abe
-0.14706346 -0.16646108

action_model._continuous_distribution.mu.weight f4 [2, 128]
00000000: a3af 743c 2e15 f83c 69f8 1a3d 37b3 89bc
00000010: 5d94 a8bd faa4 9f3c 33c5 2cbd cf63 8cbd
00000020: fbf7 5c3b c361 b3bb befd ba3d 83a4 5b3c
00000030: 3727 463c 2eeb 98bd 9388 10bd 2bef 883c
00000040: 20df 523d 4689 08bd 1349 cdbd 92ba fa3c
00000050: 513a 7c3c d18f 86bc 95eb 2b3c 8d0e ba3d
00000060: 0a3b c5bb a468 c03b 51fd 6d3d 0334 38bb
00000070: d0ef 5e3b f39e 7cbd 78f2 a3bc 2798 7c3d
00000080: ee2e a6bb efe0 a93b 6aac 793c ef51 4b3c
00000090: 468d 8e3c 5891 72bd b27b 4d3c 7cb2 cabd
000000a0: 8c5f cb3c be13 2e3a 397a c93c 0b6d b7bc
000000b0: 7e2d 503c 0ed3 3e3a beb0 a3bc c122 c5bd
000000c0: 3daa 543c b249 863c c06e 21bc 26bc cf3c
000000d0: 0317 bcbc 1586 ce3c 76b8 ae3b d830 103c
000000e0: 2818 27bd b44a a7bd edbd 2c3d 96cb e2bc
000000f0: 0d6b 023d 8f28 e7b9 8691 74bc 6e2f 21bd
00000100: a3a9 d9bc a124 77bd d4a9 eb3b c100 acbd
00000110: 3c35 c63c 8ae3 e9bb 44fe 9b3c d6b0 a93a
00000120: 4396 a0bc 0649 7cbd 4484 bcbc ca8b 8e3d
00000130: b99d dd3c fd3d a53b aed3 b5bb 3596 fc39
00000140: 7fbe bcbc 50d9 c73b 1e05 41bc 4c5c 0fbc
00000150: 3cd5 86bb ea57 1cbb 5a15 603d 160f b23b
00000160: d4a4 0cbd b07c df3c 3b7f b73c 6005 893b
00000170: 1740 1bbd 1937 fc3a 708e 373d c517 c2bc
00000180: ae9b 683c d22a 9abd 60a1 7bbd e204 bf3a
00000190: 6819 eb3c fb7a 75bb 4a3f f4bb 3c2a bdbc
000001a0: 46ac c93b d242 c9ba b96a d23d 54ed 9fbc
000001b0: 4fe4 9abd 768d 0f3d 4abe 373d cfc1 323a
000001c0: 0ab4 7d3c 02c9 aebc cb53 293a dd17 673b
000001d0: 90d9 74bc c5f8 d3ba 6e7d f7bc c49d 97bc
000001e0: fdf7 563d 079a 18bd 2146 a13d c597 913a
000001f0: 7416 733d 6438 c6bc a101 7abc 9fcc 3d3d
00000200: eacf 00bd 834b ab3c 06df 963c d6e8 a23d
00000210: 44d2 a3bc 58ed 4f3d 5d55 6bbc 1908 f53b
00000220: 9cf7 bf3b 7c88 ddbb 737c 0bbe 6faa 9ebb
00000230: b5eb 3dbc 986b 983a b34a 0bbc c07c c7bd
00000240: a644 e2bc 9508 84bd 72c6 9bbb dfca 00bd
00000250: 40e0 0dbe 4bad 623c 28d2 87bb c938 cb3c
00000260: eea3 f9bb 9c89 543d 8a7a e83c 9cc5 d7bb
00000270: 0b38 023b 5708 f9bd 7765 a83d e5b3 113d
00000280: eadc d4bb 84da 5cbc 4174 a53c 1e5b 8bbc
00000290: c091 0d3d 8fe7 d93d 0f21 ad3a 3cb0 253c
000002a0: 7bcf 5dbd c263 abbc 0746 4bba 6ae6 163c
000002b0: be7f fe3b 5a15 db3b e31c 6fbd 2a4e 1c3d
000002c0: 5c11 103b 19bd 15bd ced9 debb bd33 903b
000002d0: 9a86 d63b 85f3 343b 7189 8ebc b606 8bbc
000002e0: fe42 0abd 2a7c f03c 899e ed3c 2859 f7bc
000002f0: 7713 9bbb 47ab 88bb f959 0e3d cd7e ac3c
00000300: 6dca e83c 3123 b43c 4b8e 64ba de55 883c
00000310: 9deb 503c 32cf 9b3b cc26 a6bd 36f1 40b9
00000320: 7fa9 ba3c 1361 ccbd 5f8c 133c bfe8 52bd
00000330: 725a 0d3c dee3 263d da86 6c3c d2df 283a
00000340: a799 d4ba 742a 63bb c816 b6bd 77ae 60ba
00000350: 1fe8 31bb 9468 18bb d047 2b3d 1d36 8e3d
00000360: 51b6 a6bb 8246 e4bd 80e7 933c 60c3 02bc
00000370: 8e34 1d3a cb2e a73a b47e 00bd b181 8c3d
00000380: ac82 053d b60f 04bd c251 8a3d bd48 233b
00000390: 8122 983d 7404 2e3c 8eba c13b f8c8 0b3d
000003a0: 4b8c f63c 2723 eb3b cce6 533d 388c e03c
000003b0: 6147 e3bc a34b c63c e6c8 74bc 4187 bd3a
000003c0: b292 b83c df91 103d 50c8 84bd 0168 9a3b
000003d0: be5c 27bc d9fe 12bb bc2a eabc ffbb 18bc
000003e0: 737c 853c ce5e 2cbc 485b 08bd 2cf0 c7b9
000003f0: e714 3b3c e1af da3c dd01 6bbd 9da3 9cbc
0.014934453 0.030283537 0.03783456 -0.01680909 -0.08231423 0.019487847 -0.04218025 -0.068549745
0.0033717144 -0.0054743006 0.09130429 0.013405922 0.0120943105 -0.07466732 -0.035286497 0.016715607
0.05148232 -0.03333404 -0.100237034 0.030606542 0.015394763 -0.016425999 0.010493179 0.090848066
-0.006019001 0.005871849 0.05810291 -0.0028107173 0.003401745 -0.061675023 -0.020013079 0.06166854
-0.0050715124 0.005184285 0.015238861 0.012409671 0.017401349 -0.05922064 0.012541698 -0.098973244
0.024825834 0.0006640515 0.024594413 -0.022390863 0.012706159 0.00072793744 -0.019981738 -0.096257694
0.012980041 0.016392563 -0.009853065 0.02535827 -0.022960192 0.02521042 0.005332048 0.008800708
-0.04079452 -0.08168545 0.042173315 -0.027684968 0.031840373 -0.00044089972 -0.014927274 -0.039351873
-0.026570147 -0.060337666 0.007191876 -0.08398581 0.024195306 -0.0071377205 0.019042142 0.0012946378
-0.0196029 -0.061593078 -0.023012288 0.069602564 0.027052747 0.00504279 -0.005548916 0.00048177099
-0.023040054 0.0060989037 -0.011781005 -0.008750033 -0.004114775 -0.0023856112 0.054707862 0.0054339273
-0.03433688 0.027281135 0.022399535 0.004181549 -0.037902918 0.0019242495 0.044813573 -0.023692975
0.014197273 -0.075276986 -0.061433196 0.0014573599 0.028698638 -0.0037457335 -0.0074538337 -0.023091428
0.00615457 -0.0015354997 0.10274262 -0.019522347 -0.07563078 0.035047017 0.04485921 0.0006819041
0.015484819 -0.021336082 0.00064593245 0.0035262026 -0.014944449 -0.0016172162 -0.030211177 -0.018507846
0.052482594 -0.037256267 0.07874704 0.0011107853 0.059347585 -0.024196811 -0.015259177 0.04633772
-0.031448282 0.02091003 0.018416893 0.07954566 -0.019997723 0.050763458 -0.014363614 0.007477772
0.0058583748 -0.006760655 -0.13621692 -0.0048420946 -0.0115918415 0.0011628745 -0.008501696 -0.09740591
-0.027620625 -0.064469494 -0.004753881 -0.031443473 -0.13855076 0.013835262 -0.0041449256 0.02480735
-0.007618419 0.051889047 0.028378744 -0.006584836 0.001986983 -0.12159794 0.08222478 0.03557195
-0.0064960616 -0.013479833 0.020197036 -0.017011221 0.034562826 0.106398694 0.0013208705 0.010112818
-0.054152947 -0.020921592 -0.00077542703 0.009210208 0.007766693 0.006685895 -0.058377158 0.03816048
0.0021983003 -0.03655729 -0.0068008667 0.004400699 0.0065468075 0.002761097 -0.017399522 -0.016970973
-0.033755295 0.029356081 0.02900626 -0.03019388 -0.004732545 -0.0041708085 0.034753773 0.021056557
0.028416837 0.021989437 -0.0008718713 0.016642507 0.012751487 0.004754924 -0.08112869 -0.00018400405
0.0227859 -0.09979453 0.009005635 -0.051491495 0.008627521 0.040744655 0.014436448 0.0006442043
-0.0016220108 -0.0034662755 -0.08891064 -0.0008570919 -0.0027146412 -0.0023255693 0.041816533 0.06943915
-0.005087652 -0.11146261 0.018054724 -0.007981151 0.0005996906 0.0012755034 -0.031370834 0.06860674
0.03259532 -0.032241546 0.06753875 0.0024915182 0.07428456 0.010621179 0.0059121316 0.034127206
0.030096194 0.0071758213 0.051733777 0.027410612 -0.027743997 0.024205988 -0.014940476 0.0014459864
0.022530887 0.035295364 -0.06483519 0.0047121053 -0.010214983 -0.0022429733 -0.02858483 -0.0093221655
0.016294694 -0.01052065 -0.033290178 -0.0003813518 0.011418558 0.026695194 -0.057374824 -0.019120986

action_model._continuous_distribution.mu.bias f4 [2]
00000000: 7601 ca3b 32e1 ab3c
0.006164725 0.020981405

exp_avg f4 [128, 8]
00000000: b2dd c438 1ebf 673a 9bde 4d3a aece 1e39
00000010: c817 7f3a 1943 3539 4323 34bb c90b 55ba
00000020: 480d c0b9 ec75 7db8 26b0 8ab9 6efe 8339
00000030: 8e60 48ba fa75 3739 65a6 5d39 4acf 3239
00000040: bf22 3239 a4bd 9439 c0ff 3236 0430 7cb9
00000050: 8658 f739 3eca 8637 f22d 723a 58b4 023a
00000060: 28ba 4238 cd8c ed38 f084 7938 5b29 92b8
00000070: 20f7 6936 ee17 4cb8 8af4 8339 ad21 a738
00000080: 2338 98b8 8018 0f39 5090 85b9 7281 0f39
00000090: baf5 01b9 6869 1239 72fa 033a 6f47 bd39
000000a0: c780 8d38 b8e9 28b9 5238 c538 ba91 0d39
000000b0: be06 eab9 ae7b 8738 c2e6 bcb8 d559 1cb8
000000c0: 5000 1a3a 9057 6bb9 903a 083a c4a4 6638
000000d0: 2a1f 3439 69d3 c7b9 d9a1 4939 d36c 9eb9
000000e0: 71f3 00ba 29bc b9b9 102d 17ba e091 9736
000000f0: ab2b 0aba 15e1 9838 b541 c03a 3b02 c339
00000100: 3c64 7839 07e7 9b39 360e c239 ac7a 5539
00000110: dc22 8fb7 99b8 25b9 0b20 0fba 006b a1b8
00000120: 525b 7ab8 cc1f 4bb7 aebe 9339 e705 cf38
00000130: d4db b2b9 ec8b c8b7 be2d 4139 782b f936
00000140: 2656 2e39 55a0 aab8 f755 b539 ccc0 fdb9
00000150: 3ce3 6d3a 6d26 fcb9 d1cf f8b8 fc94 64b9
00000160: b5c0 4139 8375 bbb9 75a3 9538 0044 b83a
00000170: 1bb7 363a 62d2 8539 bebf abb8 fd48 97b9
00000180: 818a 8d39 6e45 113a 70d9 9d38 926c d5b9
00000190: 1d4a 3b3a f7a2 c4b8 c01e ebba 1eb9 cab8
000001a0: a5fd b438 e0c6 063a 3176 bd39 5a79 f837
000001b0: 2499 1439 2c75 0bb9 2259 49ba 9ebf 82b9
000001c0: a3dd bcb8 ae91 5038 805e 48b9 3d2c e2b9
000001d0: 66f9 cc38 4c83 3cba edad 073b 4f54 2839
000001e0: 61a8 b9b9 d5e3 033a 1cde 4e3a 8e4d 3a39
000001f0: a4a4 12ba e851 a838 065e e0ba 9601 0cba
00000200: 9251 7539 f69e 7b39 e5be 7439 d00e 6c39
00000210: 2e0c b0b9 f219 58b8 15d1 83b8 888f 2d38
00000220: f810 a139 efad 853a a879 4e3a bcd3 83b9
00000230: be1b 903a cc50 1b38 ed54 06bb d708 3fba
00000240: 70c2 0b39 841d a3b9 d46b 3738 9c7e 2e39
00000250: 60e3 93b7 9d1f cab9 8946 ea3a 802a 2cb7
00000260: 4dac f038 47b9 6039 1222 9c37 4a5e 91b8
00000270: 2f61 10b8 7eee 82b7 e24f 8eb8 32bf 19b7
00000280: 6677 ba38 fb22 ac38 31e1 d939 c213 31b7
00000290: 16f9 26b9 37d8 65b9 a085 3ab6 6e07 70b9
000002a0: 7448 2938 8410 eb38 5f53 7e39 8d39 6239
000002b0: e6d0 2939 d3f5 87b8 fac7 2eb8 2c5c 47b9
000002c0: 4216 1fba 2c1f 2dba 2cba 75ba 7940 dd3a
000002d0: 2736 cf38 2052 803a e0a7 5fba 2e4e 4539
000002e0: d03b 0fba 2833 5a38 5d59 1c39 a89e db38
000002f0: 359e 16b9 8dc2 a039 bc32 8aba ce1c 2ab8
00000300: e62d 1239 06f7 36b8 32d5 ccb9 2ec0 0939
00000310: 6ed1 b138 cbfa 3839 4be5 6b39 0630 be37
00000320: ecaf 7eb9 ce65 32b9 f890 9fb9 073e 79b8
00000330: c993 c7b9 a615 6638 0651 123a 4c7a 003a
00000340: 6e19 96b8 4d22 2939 20ab 7ab7 0531 8b39
00000350: 68d9 3fb8 99a3 dd37 991f 1b39 2069 0435
00000360: 6a8d 81b9 b9b7 c0b9 36be 02ba 6940 73b9
00000370: ae88 4db9 a737 5138 2390 343a 611a 7a39
00000380: dd59 5739 1837 3839 875b bc39 fef0 c538
00000390: cecc 153a a8e6 59b9 646c 11b9 c686 3fb9
000003a0: 4264 abb8 0cf3 0538 4a4a dbb9 f405 7cb9
000003b0: dc8b f039 6357 8ab9 8c09 863a 2922 4d39
000003c0: 40f4 d737 94b7 d5b9 a8cd 65b9 dc73 2bb9
000003d0: 18ef 4e38 88bc 02b9 f8b1 843a aa6a 4839
000003e0: d059 97b9 0c62 1039 f621 c5b9 e488 ecb9
000003f0: aba7 6fba 24ad 6eb8 d764 323a 07b8 5539
9.387302e-05 0.00088404294 0.00078533 0.00015145048 0.0009731022 0.00017286501 -0.0027486838 -0.00081270613
-0.0003663099 -6.0429724e-05 -0.00026452652 0.00025175832 -0.00076437823 0.0001749619 0.00021138189 0.00017052624
0.00016988347 0.00028370053 2.6672933e-06 -0.0002405048 0.00047177466 1.6068221e-05 0.0009238414 0.000498598
4.6426576e-05 0.00011327267 5.9490034e-05 -6.9695256e-05 3.4863551e-06 -4.8659676e-05 0.00025168463 7.969453e-05
-7.258381e-05 0.0001364667 -0.00025475258 0.00013685765 -0.00012393939 0.00013962912 0.00050345727 0.0003610211
6.7473906e-05 -0.00016108796 9.4041825e-05 0.00013501095 -0.0004463698 6.460339e-05 -9.0075206e-05 -3.727696e-05
0.00058746804 -0.00022443966 0.0005196715 5.4989723e-05 0.00017177747 -0.0003811375 0.00019229147 -0.0003021719
-0.0004919088 -0.0003542614 -0.00057669077 4.5171328e-06 -0.0005270789 7.2898496e-05 0.001466802 0.0003719496
0.00023688463 0.00029736033 0.0003701315 0.00020358962 -1.7063161e-05 -0.00015804394 -0.0005459792 -7.6970086e-05
-5.9689693e-05 -1.2107146e-05 0.00028180092 9.8716286e-05 -0.0003411459 -2.3907014e-05 0.00018422955 7.4258387e-06
0.00016626026 -8.136096e-05 0.0003458706 -0.00048399565 0.0009074693 -0.00048093815 -0.0001186427 -0.00021799275
0.00018477703 -0.00035754972 7.13532e-05 0.0014058352 0.0006970034 0.00025524484 -8.18963e-05 -0.00028855345
0.0002699681 0.0005541657 7.526844e-05 -0.00040707417 0.00071445276 -9.376363e-05 -0.0017938241 -9.666591e-05
8.630314e-05 0.0005141329 0.0003613695 2.9620413e-05 0.00014171429 -0.00013299723 -0.00076808233 -0.00024938298
-9.0058216e-05 4.972674e-05 -0.0001910869 -0.0004313904 9.773932e-05 -0.00071911956 0.0020703033 0.00016053136
-0.00035411402 0.0005031203 0.0007891373 0.00017767234 -0.00055939914 8.0261205e-05 -0.0017117865 -0.00053408125
0.00023395408 0.00023996443 0.00023340767 0.00022512232 -0.0003357841 -5.1522577e-05 -6.285511e-05 4.1380088e-05
0.00030720956 0.0010198931 0.00078764046 -0.00025144021 0.0010994596 3.7030128e-05 -0.0020497397 -0.0007287389
0.00013328507 -0.00031111774 4.3731023e-05 0.00016641099 -1.7629645e-05 -0.00038551996 0.0017873804 -1.0261894e-05
0.00011476185 0.00021431326 1.8612514e-05 -6.9317015e-05 -3.4422785e-05 -1.5608264e-05 -6.785967e-05 -9.164027e-06
8.891411e-05 8.208115e-05 0.00041557246 -1.0554622e-05 -0.00015923785 -0.00021919688 -2.779394e-06 -0.00022890951
4.0360217e-05 0.000112087495 0.00024254386 0.00021574479 0.00016194917 -6.48309e-05 -4.1671075e-05 -0.00019012456
-0.00060686853 -0.0006604071 -0.000937375 0.0016880176 9.880616e-05 0.00097901 -0.000853179 0.00018816508
-0.000546393 5.2022893e-05 0.0001491061 0.00010472286 -0.00014364051 0.0003066253 -0.0010543684 -4.0557985e-05
0.00013940744 -4.362224e-05 -0.00039068755 0.0001313693 8.479027e-05 0.00017641035 0.00022496765 2.2672128e-05
-0.00024288864 -0.00017013328 -0.00030434853 -5.9423994e-05 -0.00038066346 5.4856435e-05 0.00055815314 0.0004901036
-7.157294e-05 0.00016129874 -1.4941004e-05 0.00026548668 -4.5740424e-05 2.6421434e-05 0.00014793723 4.932681e-07
-0.0002471016 -0.00036757978 -0.000498745 -0.0002319828 -0.0001960124 4.9881313e-05 0.0006887933 0.00023851685
0.00020537474 0.00017568131 0.00035926347 9.43858e-05 0.0005714417 -0.00020780659 -0.00013868656 -0.00018265386
-8.17259e-05 3.1936026e-05 -0.00041826285 -0.0002403481 0.0004588057 -0.0002638652 0.0010226234 0.00019563049
2.5743735e-05 -0.00040763302 -0.00021915755 -0.00016350992 4.93369e-05 -0.00012468 0.001012384 0.00019113222
-0.0002886788 0.00013769435 -0.0003760007 -0.0004511542 -0.0009142111 -5.690487e-05 0.00068051874 0.00020381818

exp_avg_sq f4 [128, 8]
00000000: 2672 2d37 ed4f 4f37 d12a d637 5c83 bc37
00000010: 5f12 9737 480d b236 c98c 8d38 d57c b536
00000020: 8ee2 4336 2302 d336 4d62 8736 2488 d235
00000030: ecb0 8536 a09c ff35 de37 f435 6805 c335
00000040: 7e4a 4c36 3bce 9e36 8c1f 9e36 126f d235
00000050: 7246 c836 3e53 e235 dcdb 8336 9296 3136
00000060: 0ea9 f135 eb8e 7235 9993 0137 241d 7b36
00000070: 56a2 a935 51f7 c635 c586 9e37 40f6 b434
00000080: 1202 4a36 b00e 7c36 7a17 5236 24cc fd35
00000090: dcc4 8a36 bfe9 0236 3287 ea35 0ba9 ed35
000000a0: 51cf e435 9caa b835 3828 7f36 9fdd 9f35
000000b0: 5b47 fd35 3c8d c935 e5ff 6736 e73c 2935
000000c0: 9b23 c036 75b6 c736 fa39 0637 b785 2537
000000d0: 64af 0c37 2797 5c36 1db7 2836 6cc6 6436
000000e0: db0d e336 4bf3 2737 47f9 0537 c06f 8736
000000f0: 46c3 3537 5a51 bd36 e644 b636 ecfe a336
00000100: c634 f435 cf3e da35 9c06 8c36 2a8c c836
00000110: 2f21 1d36 0bd9 f435 4528 7036 2cd2 7e35
00000120: 65fa 8635 c8eb ed35 8134 9436 072a 5835
00000130: 5946 de35 e425 6435 ace8 ab35 36fc 5b35
00000140: ce8f 1037 c102 2737 f06e 9f37 970c 3f38
00000150: 29b3 ad37 67af 8036 d9c8 1838 2f3b 9536
00000160: d209 ea36 128e 0237 5bb0 5137 8140 8337
00000170: 5088 1d37 210c 9536 5d65 8f36 23f9 8736
00000180: d1f5 d336 1b98 2337 15dc b637 4246 3738
00000190: b98f 6537 cc4d 4a36 6c7a 2638 b6e8 4836
000001a0: 0e5b 1536 5015 1836 17e2 d536 f813 2d37
000001b0: 927a 9136 16f8 c935 cd86 2137 f936 ae35
000001c0: d3c3 1337 ff26 0137 afba 2038 df83 0c38
000001d0: b574 8237 8e9e c436 a336 f238 8d72 1a36
000001e0: a114 dc36 ff48 f836 8b5c a337 be77 e736
000001f0: a41a 4d37 1b43 7d36 d054 7838 1ab7 8b36
00000200: 362c 0336 f839 d735 2440 4b36 9439 7836
00000210: df21 4b36 a05a 5c35 8a22 ac36 5cf3 5e35
00000220: 164e f736 06cb 3037 1f65 6637 83fb ed36
00000230: b482 7637 b902 a136 d378 8c37 fcbd 8336
00000240: 3af1 1737 d8ca 2437 7954 0c38 40c9 1a37
00000250: e36b 7f37 50c8 2037 d5e1 5038 cad0 d736
00000260: a21c 9c34 54cc 1435 6c97 0335 6628 6f34
00000270: ac84 1835 31ea 8834 d803 3234 eac6 a734
00000280: 098d bc35 dcde a635 6ec9 3036 6813 3a35
00000290: 32e9 4e36 2761 9b35 a2b1 e734 bda4 ce35
000002a0: 6b6e 3235 244b 4135 b626 4735 7717 7a34
000002b0: 875d 8b35 5b73 3935 2e7f 7d34 3266 1035
000002c0: 3a70 4037 9b1e 1c37 d7e7 e637 3940 8738
000002d0: af4b d137 cc42 9036 215c 9138 1d3e 9b36
000002e0: f749 2136 e041 7a36 6b2f a236 7300 7636
000002f0: dfc6 da36 da51 a835 6375 a537 8c64 a535
00000300: 5f24 b735 b305 a835 a60d 2c36 cae2 5b36
00000310: 11b7 1b36 1711 7635 94d7 a236 5ce8 6f35
00000320: ded3 3e36 9936 2336 547b 6c36 4a26 cb35
00000330: 6b51 a836 b036 2936 aee2 8136 e8c6 cb35
00000340: ab91 4936 687c 0e36 5380 1d37 38ba 8536
00000350: e35b 9436 5b85 9036 ac0e af36 4c7b a635
00000360: 7262 4e36 60d3 0d36 f820 b636 c501 0237
00000370: 8cb3 d936 89f5 0e36 1cc7 8d37 cc90 c035
00000380: 3032 5936 4ca3 b336 1342 a836 cf3e c335
00000390: 1f5a d336 d1d1 1e36 df74 d435 1be4 8836
000003a0: bdc5 9c36 3b2a 3336 10fa b237 2e74 1a37
000003b0: 8a04 ba36 d516 a736 5165 2e38 c5e3 9335
000003c0: 1633 8636 ad1a 4a36 b63d 5f37 bcc4 8d37
000003d0: 83ea e736 cd2a 3a36 05bf 2638 589e 8835
000003e0: e107 6f36 00b2 3e36 f737 1137 932e 9837
000003f0: 7378 f636 267e 9735 cc76 e737 b852 6335
1.0338181e-05 1.2356771e-05 2.5530726e-05 2.2472515e-05 1.8009157e-05 5.3063595e-06 6.749627e-05 5.4087527e-06
2.9189137e-06 6.2885388e-06 4.0347572e-06 1.5685841e-06 3.9843053e-06 1.9044564e-06 1.8195676e-06 1.4530206e-06
3.044173e-06 4.7327753e-06 4.7124395e-06 1.5678545e-06 5.9686654e-06 1.6862539e-06 3.9296992e-06 2.6462699e-06
1.8005101e-06 9.036e-07 7.723364e-06 3.7418877e-06 1.2638727e-06 1.4824128e-06 1.8897825e-05 3.3706783e-07
3.010155e-06 3.7559475e-06 3.1306104e-06 1.8909382e-06 4.135638e-06 1.9507568e-06 1.7473706e-06 1.7707074e-06
1.7047661e-06 1.3758722e-06 3.8021371e-06 1.1910923e-06 1.8870736e-06 1.5016772e-06 3.4570633e-06 6.304603e-07
5.726191e-06 5.951903e-06 8.000521e-06 9.865899e-06 8.385487e-06 3.2870537e-06 2.5140537e-06 3.4090144e-06
6.76674e-06 1.0010622e-05 7.985457e-06 4.036323e-06 1.0833906e-05 5.6421095e-06 5.4320435e-06 4.8874554e-06
1.8194776e-06 1.6260545e-06 4.1730946e-06 5.9767817e-06 2.3414138e-06 1.8242584e-06 3.5786227e-06 9.4928214e-07
1.0056652e-06 1.7726497e-06 4.416856e-06 8.052743e-07 1.6560763e-06 8.4991757e-07 1.2808209e-06 8.195087e-07
8.616551e-06 9.954617e-06 1.9005936e-05 4.5549674e-05 2.0706635e-05 3.835117e-06 3.6426678e-05 4.447436e-06
6.9748867e-06 7.781682e-06 1.2498432e-05 1.5646454e-05 9.389667e-06 4.441958e-06 4.2735323e-06 4.052317e-06
6.316907e-06 9.750972e-06 2.1798574e-05 4.3696033e-05 1.3682927e-05 3.014563e-06 3.96915e-05 2.9937778e-06
2.225573e-06 2.266217e-06 6.374215e-06 1.0316253e-05 4.335606e-06 1.504787e-06 9.627734e-06 1.2980009e-06
8.807477e-06 7.698079e-06 3.8320835e-05 3.3501416e-05 1.5551554e-05 5.8597134e-06 0.00011549636 2.3014466e-06
6.5589124e-06 7.399474e-06 1.9474208e-05 6.8982763e-06 1.2225155e-05 3.7738998e-06 5.9206795e-05 4.1638386e-06
1.9546255e-06 1.6035619e-06 3.0286692e-06 3.6988395e-06 3.0269073e-06 8.2088263e-07 5.1300203e-06 8.305558e-07
7.370264e-06 1.0537688e-05 1.3732612e-05 7.09243e-06 1.4693174e-05 4.798491e-06 1.6745564e-05 3.9262213e-06
9.056466e-06 9.82239e-06 3.3457272e-05 9.2259725e-06 1.5224304e-05 9.583382e-06 4.9801387e-05 6.4318056e-06
2.9078097e-07 5.5431633e-07 4.902165e-07 2.2273306e-07 5.6817476e-07 2.550237e-07 1.657894e-07 3.1250903e-07
1.4048138e-06 1.2432824e-06 2.6343291e-06 6.931864e-07 3.083213e-06 1.1576675e-06 4.3156348e-07 1.5396141e-06
6.6470847e-07 7.2007447e-07 7.418961e-07 2.3291601e-07 1.0383527e-06 6.9085735e-07 2.3608729e-07 5.3792894e-07
1.1470222e-05 9.3054505e-06 2.7526095e-05 6.449264e-05 2.4949984e-05 4.2993106e-06 6.931299e-05 4.626591e-06
2.4033923e-06 3.7291247e-06 4.8334964e-06 3.6657118e-06 6.520058e-06 1.2540797e-06 1.9724195e-05 1.2322721e-06
1.3645148e-06 1.2518634e-06 2.5637942e-06 3.2765552e-06 2.3203359e-06 9.166701e-07 4.853073e-06 8.9372566e-07
2.843553e-06 2.4320673e-06 3.5238527e-06 1.5135822e-06 5.0162685e-06 2.5214795e-06 3.8708886e-06 1.5182568e-06
3.0036124e-06 2.1232063e-06 9.387807e-06 3.9853876e-06 4.4214407e-06 4.307059e-06 5.2171144e-06 1.2403848e-06
3.0753695e-06 2.1133674e-06 5.4278607e-06 7.749016e-06 6.488006e-06 2.130257e-06 1.6901227e-05 1.4347256e-06
3.2364733e-06 5.353626e-06 5.014482e-06 1.4546912e-06 6.2987815e-06 2.3665964e-06 1.5829245e-06 4.079671e-06
4.672182e-06 2.669766e-06 2.1335698e-05 9.2061655e-06 5.5437604e-06 4.979646e-06 4.157919e-05 1.1018643e-06
3.9994584e-06 3.0115873e-06 1.3306204e-05 1.6900121e-05 6.9116372e-06 2.7741073e-06 3.9755385e-05 1.0178874e-06
3.5618361e-06 2.8415816e-06 8.655704e-06 1.81415e-05 7.3453934e-06 1.1287091e-06 2.7592665e-05 8.468446e-07

exp_avg f4 [128]
00000000: 90cf 433a cbdc 12ba 670c 633a 24c5 2638
00000010: 70b6 9439 68a3 20b9 30e5 e937 2902 6639
00000020: 2af4 9939 92e4 08b9 9e05 f839 70ef a1b7
00000030: 72d9 283a 08d6 5538 50cc 4138 711f dfb9
00000040: 21ae 84b9 5748 343a 3424 3039 efb3 d0b7
00000050: 24d2 a3b8 5257 10b8 50ca 19b9 6812 2937
00000060: b812 86b9 9dd0 57b8 687b b838 777c 82b9
00000070: 41b6 6139 a12f 3c39 2b87 d9b8 00b2 25ba
00000080: f1f5 68ba 6156 83b9 de2c cd38 c4eb d0b9
00000090: d03c 23ba f9bf b1b8 21e5 4b39 782e 8c3a
000000a0: 7b8a 35ba a48c 79ba 8395 15b9 9125 ed39
000000b0: 9aa3 08ba c9a3 b539 86a0 fe38 f6a5 1539
000000c0: abed db39 f6f8 e238 6e3f 8538 448a 3e38
000000d0: 7fd0 d639 c047 6f37 e6c0 02b9 981c 41ba
000000e0: 1a9c fe39 0491 cdb9 7fe9 97b9 bc13 0ab8
000000f0: b679 cd38 3869 a737 03b9 9839 48ba 86b8
00000100: 30b6 5139 33bd 4839 9b35 a9b9 0036 beb9
00000110: d445 d0b9 d39c e7b9 450f 5fb9 42dd 3e39
00000120: 86a1 9239 8377 2fba 9e2f 0f3a 8dc3 8a39
00000130: cfc8 bcb9 3cb2 9db9 1ca4 e2b8 0ede 06b8
00000140: 0faf 4b3a 1656 7cb9 b09e 7bba a969 7939
00000150: 4b28 17b9 62b9 083a 4c1e ffb9 91ec c2b9
00000160: da19 98b9 b628 2b39 8098 5e36 f40b 93b9
00000170: 8c4c c0b8 2d22 8b37 4f76 75b9 ae2e 1c39
00000180: b2af 563a 2f66 ffb9 89e9 44ba 5b92 8bb8
00000190: 94a0 273a 821a cab9 a15a 16b9 f1b1 aab9
000001a0: fe4a 69ba d6c3 2c3a 98b6 fab9 a4ab e9b8
000001b0: c37c b43a 04e6 ceb9 895f b4b9 fc0c 0cba
000001c0: 469c 0c39 e004 74b7 01e5 253a 898d feb9
000001d0: 5fde 1aba 2732 1e3a 61c9 053a 8b82 57b9
000001e0: 58fd 933a c564 913a 851e 583a 35fb 75ba
000001f0: dfea c3b9 a4bf 96b9 ab9e 073a f46c 4c39
0.0007469589 -0.0005602359 0.0008661211 3.9761086e-05 0.00028364686 -0.00015319663 2.7882488e-05 0.00021935314
0.0002936435 -0.0001305512 0.0004730643 -1.9304192e-05 0.0006441093 5.098249e-05 4.6205067e-05 -0.000425573
-0.00025306738 0.00068772346 0.00016798155 -2.487932e-05 -7.8115874e-05 -3.44136e-05 -0.00014666584 1.00774705e-05
-0.00025572418 -5.145428e-05 8.79679e-05 -0.00024888266 0.00021525567 0.0001794682 -0.00010372543 -0.00063207746
-0.0008886746 -0.00025050624 9.783519e-05 -0.0003984851 -0.00062270183 -8.4757754e-05 0.00019444946 0.0010695001
-0.0006925237 -0.0009519553 -0.00014265445 0.00045232152 -0.0005212367 0.0003464504 0.00012141564 0.00014271573
0.00041948011 0.00010822892 6.353749e-05 4.54283e-05 0.00040972602 1.4262216e-05 -0.00012469626 -0.00073666265
0.0004856296 -0.00039208692 -0.00028974933 -3.2920143e-05 9.797832e-05 1.9956948e-05 0.00029129544 -6.4243155e-05
0.00019999663 0.00019143969 -0.0003227413 -0.00036279857 -0.00039724878 -0.00044176597 -0.00021272626 0.00018202237
0.00027967634 -0.0006693529 0.00054621126 0.00026467108 -0.00036007768 -0.00030078168 -0.000108070875 -3.2154894e-05
0.0007769921 -0.00024064662 -0.00095985364 0.00023785852 -0.00014415492 0.00052156125 -0.00048659963 -0.0003717882
-0.0002901096 0.00016322997 3.3169345e-06 -0.0002804693 -9.1695314e-05 1.6586006e-05 -0.00023409094 0.00014894709
0.0008189633 -0.00048713523 -0.0007511606 -6.655297e-05 0.00063944724 -0.00038548192 -0.00014338877 -0.00032557503
-0.00088994193 0.0006590461 -0.0004781976 -0.00011142276 0.0013770092 -0.00039462757 -0.00034403455 -0.0005342511
0.00013409657 -1.4544668e-05 0.0006328375 -0.00048552107 -0.00059077697 0.0006034695 0.0005103555 -0.00020552629
0.0011290712 0.0011092654 0.0008244294 -0.0009383441 -0.0003736829 -0.00028753013 0.00051734847 0.00019495544

exp_avg_sq f4 [128]
00000000: ba58 6437 9a1a a136 edba ae36 2e51 c035
00000010: 8c3f 7936 717e d135 9e5f bf36 a873 1837
00000020: 4037 dd35 aac0 d435 1dde 5237 50c4 0537
00000030: 617d 1737 dac1 3236 bf5d 2e37 540e 0037
00000040: bb67 d035 cfeb 3437 d2a5 3c37 05f7 fc34
00000050: b5a5 fb35 c1b1 7335 339f 5d37 d861 5c36
00000060: e228 c535 b244 6436 01aa 3b36 0f57 6f36
00000070: 6828 c036 4cc6 a036 65dd 8236 3022 8c36
00000080: cb61 1e37 2f20 5435 385e 2a36 734c 3136
00000090: 5da6 e236 1f13 5836 2492 dc36 ab7e 8437
000000a0: 9dad c836 efe4 4d37 e6e8 bf35 c962 dc36
000000b0: 325e 0536 f685 8337 8764 f535 b492 e036
000000c0: 7804 e735 e9ef 2b36 f077 9e36 4283 5d36
000000d0: 9012 7336 ba69 9f36 7ae3 5b35 07fd 9a36
000000e0: 8b67 8636 0758 bb35 4096 d636 bc8c 8536
000000f0: a5d2 7836 b50d 3136 e1a6 2736 d8ad 0e36
00000100: 0564 a235 3a63 5535 d3f3 2436 4817 a336
00000110: 02ec f036 4203 9336 c588 2636 f381 0035
00000120: 88ac 4836 e82f 9036 9a97 0936 4faa 1736
00000130: 63de 7e35 8c02 4636 4996 e734 3b70 0a36
00000140: 53b8 9f36 20f5 0936 821a a636 41c4 3e36
00000150: 536f 8b36 d795 c236 a0d6 6d36 0e34 1436
00000160: c38f a336 3baa 9d35 b5dd 0d36 396b 9c35
00000170: 3181 6836 9c92 9c36 8fa7 1236 44bd a035
00000180: 0bad ae36 3310 0037 9283 8c36 41bc 7c35
00000190: dbb7 8936 45a7 b436 44be 1336 7118 8c36
000001a0: cc62 2837 fd15 0237 718f 3236 db7f 3c36
000001b0: 87f4 5237 29f9 1336 7098 2b36 43e4 8236
000001c0: a8ff 7737 d718 8936 5dd2 8436 7420 5235
000001d0: 3c9a a336 303e 2337 cf64 4037 82f8 b336
000001e0: d103 2137 93e8 df36 3405 ad36 6bb6 ca36
000001f0: 90e8 6336 63e4 7d36 a680 aa36 3360 3636
1.3610517e-05 4.8012707e-06 5.207365e-06 1.4328741e-06 3.714088e-06 1.5608513e-06 5.703375e-06 9.086834e-06
1.6481863e-06 1.5851303e-06 1.256869e-05 7.973125e-06 9.029493e-06 2.6636903e-06 1.0393035e-05 7.632731e-06
1.5527397e-06 1.07837395e-05 1.1244281e-05 4.7118388e-07 1.8749184e-06 9.078322e-07 1.3209693e-05 3.2839507e-06
1.4689542e-06 3.4014633e-06 2.7964127e-06 3.566445e-06 5.72675e-06 4.7914564e-06 3.9000756e-06 4.176305e-06
9.440303e-06 7.902299e-07 2.5386817e-06 2.6419555e-06 6.754692e-06 3.2197638e-06 6.573524e-06 1.579461e-05
5.9806757e-06 1.2272255e-05 1.4298391e-06 6.568011e-06 1.9873373e-06 1.5678797e-05 1.828318e-06 6.6927987e-06
1.7212142e-06 2.5620632e-06 4.7227295e-06 3.3007968e-06 3.6220626e-06 4.7508775e-06 8.191488e-07 4.619014e-06
4.005565e-06 1.3958205e-06 6.3951884e-06 3.9800925e-06 3.707749e-06 2.6383034e-06 2.4982076e-06 2.126084e-06
1.209905e-06 7.9493077e-07 2.4579829e-06 4.860489e-06 7.1800323e-06 4.3813207e-06 2.4815538e-06 4.7872817e-07
2.9902749e-06 4.2971114e-06 2.0502835e-06 2.2599886e-06 9.494599e-07 2.9505782e-06 4.313645e-07 2.062893e-06
4.7600274e-06 2.0557272e-06 4.9502714e-06 2.842644e-06 4.1554827e-06 5.799094e-06 3.544068e-06 2.2084018e-06
4.8745146e-06 1.1746955e-06 2.1139688e-06 1.1654112e-06 3.4645893e-06 4.66623e-06 2.1853227e-06 1.1976013e-06
5.205749e-06 7.633166e-06 4.187642e-06 9.415126e-07 4.1043218e-06 5.3838908e-06 2.2015456e-06 4.1751705e-06
1.0036583e-05 7.753723e-06 2.660756e-06 2.8088605e-06 1.2573909e-05 2.2049737e-06 2.5569716e-06 3.900875e-06
1.4781872e-05 4.08581e-06 3.958396e-06 7.827832e-07 4.875734e-06 9.730036e-06 1.1467563e-05 5.363546e-06
9.597236e-06 6.672993e-06 5.1564075e-06 6.0413054e-06 3.3961005e-06 3.7832876e-06 5.0813715e-06 2.7176109e-06
