TestPr/Assets/ML-Agents/Examples/3DBall/TFModels/3DBall_custom.onnx (onnx, 77016 bytes, 9 tensors)

network_body.observation_encoder.processors.0.normalizer.running_mean f4 [8]
0	0xb9aba705	-0.000327401
1	0xbaabe916	-0.001311573
2	0xbcd7e298	-0.026353166
3	0x404370b3	3.0537536
4	0x3e8bf471	0.27334931
5	0xbaf41b8c	-0.0018623932
6	0xbe869c1b	-0.26290974
7	0x3b3220a3	0.0027180098

network_body._body_endoder.seq_layers.0.weight f4 [128, 8]
0	0x3f2306eb	0.6368243
1	0x3f372ec0	0.7155571
2	0x3e3ed01c	0.18634075
3	0xbd551cdc	-0.052029476
4	0x3ebeb8dc	0.37250412
5	0xbf08f168	-0.53493357
6	0xbebb25e4	-0.36552346
7	0x3e587739	0.2113923
8	0x3dae8c8a	0.085228994
9	0x3e8e3980	0.27778244
10	0xbd96da55	-0.07365862
11	0xbe37281d	-0.17886396
12	0xbea83902	-0.32855994
13	0xbe50ab6f	-0.20377897
14	0x3ebaca31	0.36482385
15	0xbf3038c8	-0.6883664
16	0xbe6c0600	-0.23049164
17	0x3c24aa55	0.010050376
18	0x3ec70c7a	0.38876706
19	0xbeb93545	-0.36173454
20	0x3ca0de92	0.01963738
21	0x3f29563b	0.661472
22	0xbd0e994c	-0.034814164
23	0x3d45c91d	0.0482875
24	0x3ea6b450	0.32559443
25	0x3e7bec43	0.24601845
26	0xbd6bd435	-0.057575423
27	0xbe8d8a8b	-0.27644762
28	0xbd815b23	-0.06316211
29	0xbdde3261	-0.10849453
30	0xbedc8c60	-0.43075848
31	0xbf06ae70	-0.5260992
32	0xbe558f0a	-0.20855346
33	0x3d0df3ff	0.03465652
34	0x3ed150ab	0.40881857
35	0xbe15d117	-0.14630543
36	0x3e09997d	0.13437457
37	0x3eb86921	0.36017707
38	0x3e488294	0.19581062
39	0xbec27f93	-0.37987956
40	0x3e74b510	0.23897195
41	0x3dea0df2	0.11428441
42	0xbe12d7f7	-0.14340197
43	0xbde456f4	-0.111493975
44	0xbe473f1f	-0.19457673
45	0xbde52dee	-0.11190401
46	0x3d592f67	0.053023722
47	0xbe7b3c48	-0.24534714
48	0x3e6f94f6	0.23396668
49	0x3ebe9b4a	0.3722785
50	0x3f488cd3	0.7833988
51	0x3f31e457	0.69489044
52	0xbe2674f9	-0.16255559
53	0xbe514d1e	-0.20439574
54	0x3f845e18	1.0341215
55	0x3e6f8f20	0.23394442
56	0xbdeca1d7	-0.11554306
57	0xbda2a9e5	-0.07942561
58	0x3ebe8887	0.37213537
59	0xbe2ed8bc	-0.17074865
60	0xbe48ceef	-0.19610189
61	0x3ebb1319	0.36538008
62	0x3dae09a3	0.08497932
63	0xbf27aed9	-0.6550117
64	0x3e2758af	0.16342424
65	0x3efd49c3	0.49470338
66	0x3da358cd	0.07975922
67	0x3ea633a4	0.32461274
68	0xbebbd5b8	-0.36686492
69	0xbf142af9	-0.5787807
70	0xbf0de9d5	-0.55434924
71	0xbea6dc72	-0.3259006
72	0x3dd47412	0.10373701
73	0x3e308e4e	0.17241785
74	0xbf06baa0	-0.5262852
75	0xbf08f8c1	-0.5350457
76	0xbe6c92a5	-0.23102815
77	0xbe57fff1	-0.21093728
78	0x3eb94790	0.3618741
79	0x3e7f4223	0.24927573
80	0xbebced97	-0.36900017
81	0x3ec62113	0.3869711
82	0x3e3a1b0c	0.1817438
83	0x3e2db042	0.16961768
84	0xbc4c2927	-0.012460983
85	0x3e805650	0.2506585
86	0xbd245ba9	-0.040126476
87	0x3f36d247	0.7141461
88	0x3f275998	0.65371084
89	0x3e8fd819	0.28094557
90	0xbe28603d	-0.16442962
91	0x3e843a5b	0.25825772
92	0x3ee70b1b	0.4512566
93	0xbecef1ec	-0.40418947
94	0x3eeedb61	0.46651748
95	0x3e30d4f7	0.1726874
96	0xbd9abec7	-0.07555919
97	0x3f378772	0.7169105
98	0xbec3b340	-0.38222694
99	0x3eb6b23e	0.35682863
100	0xbe4f939e	-0.20271155
101	0x3ede4708	0.43413568
102	0xbea6a2f8	-0.3254621
103	0x3dec7742	0.11546184
104	0xbe1b0621	-0.15139057
105	0x3ebdcaa5	0.37068668
106	0xbddf55a2	-0.10905005
107	0x3cefb4d4	0.02926103
108	0xbec0e2c5	-0.3767301
109	0x3d84a505	0.064767875
110	0x3a699139	0.00089098845
111	0x3ef20d94	0.47275984
112	0xbf38d79e	-0.72204006
113	0xbdaf16e3	-0.08549287
114	0xbe754cde	-0.23955104
115	0xbea166b8	-0.3152368
116	0x3c781a89	0.015143045
117	0x3cf3d61b	0.02976518
118	0xbf01fd03	-0.5077669
119	0xbe88477e	-0.26617044
120	0x3f0043a7	0.5010323
121	0x3f04c0f8	0.51856947
122	0xbdff3640	-0.12461519
123	0xbe8d3893	-0.27582225
124	0xbd899faa	-0.06719907
125	0xbeb8b1f2	-0.36073261
126	0xbe70ab28	-0.23502791
127	0x3e8f9ecf	0.2805085
128	0xbe9cacbc	-0.30600536
129	0x3e92d818	0.2868049
130	0xbda2c002	-0.07946779
131	0xbe1a055d	-0.15041108
132	0xbecff13a	-0.4061373
133	0xbeb67125	-0.35633197
134	0x3e7fd60c	0.24983996
135	0x3e8797a4	0.2648288
136	0x3ef94149	0.4868262
137	0x3f069426	0.52569807
138	0xbc178203	-0.009247306
139	0xbe893b07	-0.26802847
140	0x3f120735	0.5704225
141	0xbf2da927	-0.6783623
142	0x3c1d3a9a	0.009596491
143	0xbd1d7719	-0.03844366
144	0xbf192803	-0.5982668
145	0xbe93a650	-0.28837824
146	0xbf299076	-0.66236055
147	0xbf6f7bf2	-0.935485
148	0xbf18d442	-0.5969888
149	0xbe98e64f	-0.29863212
150	0xbecc7682	-0.39934164
151	0x3e968c9c	0.2940415
152	0x3cdfbd53	0.027311957
153	0xbc728430	-0.014802024
154	0x3ec20c88	0.37900186
155	0x3cad5656	0.021159332
156	0x3e673656	0.22579321
157	0xbe0241ea	-0.12720457
158	0x3eafebd7	0.3435962
159	0x3d151693	0.03639848
160	0x3e019948	0.12656128
161	0xbe85d0a1	-0.26135734
162	0xbd363474	-0.044483617
163	0xbd1d0697	-0.038336363
164	0xbe92a455	-0.28641
165	0xbd5f89dd	-0.054574836
166	0x3f222d4f	0.63350385
167	0x3edb16e9	0.42790917
168	0xbdc9fac4	-0.09862283
169	0x3e36164b	0.17781942
170	0x3f114239	0.5674167
171	0xbed25db8	-0.41087127
172	0xbd25bc1c	-0.0404626
173	0xbe92dd3e	-0.2868442
174	0x3eb4b2f8	0.35292792
175	0x3eb4bf4d	0.353022
176	0x3f2e1e48	0.68014956
177	0xbefff858	-0.4999416
178	0x3e1c726e	0.15278026
179	0x3f10fad8	0.5663276
180	0xbe29450c	-0.16530246
181	0xbddd900c	-0.108184904
182	0xbdbc3f67	-0.091917805
183	0xbb367261	-0.0027839171
184	0x3f7fd0dc	0.9992807
185	0x3ebf38a8	0.37347913
186	0xbced5ebe	-0.02897584
187	0xbe30aac2	-0.17252639
188	0xbe6c369b	-0.23067705
189	0x3e61deb7	0.22057615
190	0xbe98366e	-0.29729027
191	0xbf2577a4	-0.6463568
192	0xbf18d9c6	-0.59707296
193	0xbd179063	-0.037002932
194	0x3ce29962	0.02766103
195	0x3f415d0f	0.7553262
196	0xbf04870e	-0.5176858
197	0xbebf6eb6	-0.37389153
198	0x3c688c49	0.014193603
199	0x3b5e3291	0.0033904652
200	0x3da7f5e3	0.08201196
201	0xbec3f31e	-0.3827142
202	0x3f6dd476	0.92902315
203	0xbe85e7ed	-0.26153508
204	0x3e6abc27	0.22923337
205	0x3c844386	0.016145479
206	0xbe081547	-0.13289367
207	0xbe2333d4	-0.1593774
208	0x3bb9e1a4	0.0056726504
209	0xbe60ab4a	-0.21940342
210	0xbef2954d	-0.47379532
211	0x3d9f828c	0.07788572
212	0xbf1c0f2c	-0.6096065
213	0x3b9eebc7	0.004849884
214	0x3d673ec4	0.056456342
215	0xbe9dc265	-0.30812374
216	0xbe36183d	-0.17782684
217	0xbeced833	-0.40399322
218	0x3f290e37	0.66037315
219	0x3e4077c9	0.18795694
220	0x3e2d77c0	0.16940212
221	0xbda48555	-0.080332436
222	0xbefc2faf	-0.4925513
223	0xbea486c9	-0.32134083
224	0xbe128384	-0.14307982
225	0x3e210e3e	0.15728089
226	0x3e347152	0.17621353
227	0xbefe1137	-0.4962251
228	0xbed2757a	-0.41105253
229	0x3edc07fb	0.4297484
230	0x3f16d451	0.5891772
231	0x3f0ae203	0.54251117
232	0xbe20120a	-0.15631881
233	0x3ea87563	0.3290206
234	0xbe6cbba8	-0.2311846
235	0xbea44e8b	-0.32091174
236	0x3dfbf016	0.12301652
237	0xbd9070ee	-0.0705279
238	0xbf16a5e7	-0.58846897
239	0xbe0e7769	-0.13912739
240	0x3db9dae9	0.09074957
241	0xba04d496	-0.0005067078
242	0xbe818396	-0.25295705
243	0x3e7205a0	0.23634958
244	0xbf016c80	-0.5055618
245	0xbe436e32	-0.19085005
246	0xbf2d9463	-0.67804545
247	0x3d7400cd	0.059571076
248	0x3d26b949	0.040704045
249	0xbe2b730c	-0.16743106
250	0xbc88e710	-0.016711742
251	0x3f3c2c39	0.7350498
252	0x3d2a0178	0.041505307
253	0x3e678ff0	0.22613502
254	0xbd31d4a9	-0.0434157
255	0xbf246025	-0.64209205

network_body._body_endoder.seq_layers.0.bias f4 [128]
0	0x3ca58f10	0.02020982
1	0xbc927666	-0.017878722
2	0xbd551190	-0.052018702
3	0xbde47456	-0.11155002
4	0xbd3d1e9f	-0.04617178
5	0x3c2d45df	0.010575741
6	0x39628a4a	0.00021604556
7	0xbc9ec284	-0.019379862
8	0xbd83b8ee	-0.06431757
9	0xbd5f12a8	-0.05446115
10	0x3d022fa7	0.031783726
11	0x3ca220a3	0.019790953
12	0xbb5c7111	-0.0033636729
13	0xbc32d093	-0.010913986
14	0x3ba9fec0	0.0051878393
15	0xbd47254a	-0.048619546
16	0xbd559e5d	-0.05215298
17	0xbbb583ad	-0.0055393786
18	0xbcb846b0	-0.022494644
19	0x3cafdb25	0.021466801
20	0x3ba2924b	0.004961287
21	0xbd8599aa	-0.0652345
22	0x3cdf218f	0.027237682
23	0xbdd246bc	-0.10267398
24	0x3b765099	0.003758466
25	0xbb744c08	-0.0037276763
26	0xbd9475ad	-0.072490074
27	0x3ba7e387	0.005123559
28	0x3bee3665	0.007269668
29	0xbd6ae101	-0.057343487
30	0xbcd706fd	-0.02624845
31	0x3c686950	0.014185265
32	0x3bdbfdcd	0.006713605
33	0xbbe64940	-0.007027775
34	0xbceb0b7e	-0.028692003
35	0xbc8f566f	-0.01749727
36	0x3d27ed36	0.040997706
37	0x3c975cba	0.018476833
38	0x3c9a2b4d	0.018819476
39	0x3c9af3e6	0.018915128
40	0x3c27e104	0.010246519
41	0x3c9cdb23	0.019147461
42	0x3b4afbd9	0.0030972867
43	0x3c39620a	0.011314878
44	0xbcf98d05	-0.030462751
45	0x3c4ac1cd	0.012375307
46	0x3d1c05bd	0.03809141
47	0xbd401e5e	-0.04690396
48	0xbd5a258e	-0.05325847
49	0xbd2bba6e	-0.04192584
50	0xbcae0da6	-0.021246742
51	0x3c674ac4	0.014116947
52	0x3c95cad9	0.018285202
53	0x3b004f86	0.001957865
54	0xbdbe9ddb	-0.09307452
55	0x3c48d058	0.012256704
56	0xbc33f507	-0.010983712
57	0x3c30c166	0.010788297
58	0x3be57ae3	0.0070031746
59	0xbcfe9c89	-0.031080501
60	0x3d339de7	0.04385176
61	0x3d4db207	0.05021861
62	0xbb20a5dd	-0.0024512925
63	0xbd16176d	-0.036643434
64	0xbd5c4da8	-0.053784996
65	0xbd80dd18	-0.0629217
66	0x3cecff11	0.028930219
67	0xbd538526	-0.051640652
68	0x3ce52db3	0.027975893
69	0x3bb9ecbe	0.005673974
70	0xbdcd6b15	-0.1003019
71	0xbbf02b0d	-0.007329351
72	0xbcd05497	-0.02543096
73	0xbcec6283	-0.028855568
74	0xbd55a9c3	-0.05216385
75	0xbcffd84f	-0.031231074
76	0xbb9efba7	-0.0048517766
77	0x3bc76bfd	0.0060858713
78	0xbc0e47c6	-0.008684104
79	0xbd03c585	-0.03217079
80	0xbcbb911e	-0.022896346
81	0x3ca43ded	0.02004906
82	0xbc28bc9b	-0.010298873
83	0xbd56094b	-0.052254956
84	0xbd917a2d	-0.07103381
85	0x3b7384a9	0.003715793
86	0xbcb9fb82	-0.022702936
87	0xbccbf001	-0.024894716
88	0x3d1b04f1	0.03784651
89	0xbc6b1763	-0.014348838
90	0x3c5e37f7	0.013563148
91	0x3cc084ba	0.023500789
92	0x3d0cfa38	0.034418315
93	0x39c76aba	0.00038035755
94	0x3ce395d5	0.027781406
95	0xbd0a3242	-0.033739336
96	0x3cc25166	0.023720454
97	0x3cb015cd	0.02149477
98	0x3d3579d1	0.044305626
99	0xba9b43aa	-0.0011845727
100	0x3c6e446b	0.014542679
101	0xbb1b2785	-0.0023674679
102	0xbd31f456	-0.043445908
103	0x3ce999e6	0.028515767
104	0x3d94c05d	0.07263253
105	0x3d0f4d9f	0.034986135
106	0x3ad0421b	0.0015888842
107	0xbcf08d20	-0.029364169
108	0xbc894fff	-0.016761778
109	0xbd2aa343	-0.041659605
110	0x3cc403bd	0.023927564
111	0xbae6e3d9	-0.0017615511
112	0x3cd521a7	0.026017023
113	0x3b0a7923	0.0021129332
114	0x3d1450de	0.036209933
115	0xbd234b7c	-0.03986691
116	0xbc48d951	-0.0122588435
117	0xbbdabd81	-0.0066754227
118	0x3d2225ec	0.039586946
119	0x3d342748	0.043982774
120	0x3d7b7d2b	0.061398666
121	0xbaca2ad0	-0.0015424136
122	0xbc3151a4	-0.010822687
123	0x3ab284d2	0.0013619906
124	0xbd69645e	-0.056980483
125	0xbd29b786	-0.041434787
126	0xbd300b76	-0.04297968
127	0xbbd524cd	-0.006504631

network_body._body_endoder.seq_layers.2.weight f4 [128, 128]
0	0x3e347b69	0.17625202
1	0xbe03783c	-0.12838835
2	0xbc0629d1	-0.008188681
3	0xbdb61ea9	-0.08892567
4	0xbe49695c	-0.19669098
5	0xbe19a841	-0.1500559
6	0x3d81517a	0.063143685
7	0xbcd0355b	-0.025416067
8	0x3e185073	0.14874439
9	0xbdaa1c7c	-0.08306214
10	0x3de0fc83	0.10985663
11	0xbd44f36c	-0.048083708
12	0x3bd9fe18	0.006652605
13	0x3d96630e	0.07343112
14	0x3e07c0d7	0.13257156
15	0xbda634dc	-0.08115551
16	0x3dabf592	0.08396448
17	0xbe030087	-0.1279317
18	0xbe156bd8	-0.1459192
19	0xbe4db50e	-0.20088598
20	0xbe26f35c	-0.16303772
21	0xbc49928a	-0.012303004
22	0xbd8461bd	-0.064639546
23	0x3d12c0bb	0.035828333
24	0xbb999eb6	-0.0046881093
25	0xb923da7e	-0.00015626286
26	0xbdc77c33	-0.09740486
27	0xbd372115	-0.044709284
28	0x3d13deac	0.03610103
29	0x3d9bf04f	0.076141946
30	0xbc65571e	-0.013997821
31	0xbd588c48	-0.052868158
32	0xbd727921	-0.05919755
33	0xbdcc59c5	-0.0997806
34	0xbcfd0961	-0.030888261
35	0xbd4a5722	-0.049399503
36	0xbe5f14e1	-0.21785308
37	0xbc420ced	-0.011843902
38	0xbda8362a	-0.08213456
39	0x3b295413	0.0025837466
40	0xbbc1fa50	-0.005919732
41	0xbde535b5	-0.111918844
42	0xbc3deff4	-0.011592854
43	0xbd223b9e	-0.039607637
44	0x3e0e7c4c	0.13914603
45	0xbdb541da	-0.08850451
46	0xbdb175a5	-0.08665017
47	0xbdb190e7	-0.08670216
48	0x3dd08208	0.101810515
49	0x3bf72f8c	0.00754351
50	0xbe02de6c	-0.1278016
51	0xbbc0887c	-0.005875645
52	0xbc882b90	-0.016622335
53	0x3e4f81c4	0.20264345
54	0xbda2b876	-0.079453394
55	0xbdf8c86c	-0.121476024
56	0xbd9ee0bc	-0.077577084
57	0x3daa4c75	0.08315364
58	0xbd7fd7e2	-0.06246174
59	0x3c1535a5	0.009107028
60	0x3cf48873	0.02985022
61	0xbda7eaec	-0.08199105
62	0xbe49e71c	-0.19717067
63	0xbdc2a6ea	-0.095044926
64	0x3d17f385	0.037097473
65	0x3d19b815	0.03752907
66	0x3dac91bb	0.084262334
67	0xbd4a1a1e	-0.049341314
68	0xbe02e113	-0.12781172
69	0xbd976b28	-0.07393485
70	0xbdc6c828	-0.097061455
71	0x3d328435	0.043583114
72	0x3dd0784b	0.10179194
73	0xbd04a1c9	-0.032380853
74	0x3d303ec3	0.043028604
75	0xbd2c6c0b	-0.042095225
76	0xbc7b148e	-0.015324725
77	0x3dbb181a	0.091354564
78	0xbd1667e7	-0.036720183
79	0x3b0f001d	0.0021820136
80	0xbb9fc444	-0.0048756916
81	0xbdc57001	-0.09640504
82	0xbc729c64	-0.014807794
83	0xbdb9e52f	-0.090769164
84	0xbdc17376	-0.094458506
85	0xbd9ad2da	-0.07559748
86	0xbca63342	-0.020288114
87	0xbc48b0c6	-0.012249177
88	0x3d1ff53e	0.03905224
89	0x3e0ee42f	0.13954233
90	0xbceadf57	-0.02867095
91	0x3dd4ca4c	0.103901476
92	0xbdafda48	-0.08586556
93	0x3d50303a	0.050827242
94	0xbdb8ac7a	-0.09017272
95	0x3ccda81d	0.025104577
96	0xbd0fc733	-0.03510208
97	0xbc02c04d	-0.007980418
98	0xbde125ab	-0.10993513
99	0x3e1066c0	0.14101696
100	0xbc52994b	-0.012853931
101	0xbc829739	-0.01594125
102	0x3e053de9	0.13011898
103	0xbdb870c8	-0.09005886
104	0xbe8924a2	-0.2678576
105	0xbd902bd7	-0.07039612
106	0xbd05e12d	-0.032685447
107	0xbd18cbe5	-0.037303824
108	0xbd8701ea	-0.06592162
109	0x3c5d0957	0.013490996
110	0xbd23bb1b	-0.03997336
111	0xbe679551	-0.22615553
112	0x3e29e2b2	0.16590384
113	0x3dff16b4	0.12455502
114	0x3d789a3f	0.060693976
115	0x3e000944	0.12503535
116	0xbe47ce95	-0.19512399
117	0xbdcd2b4f	-0.10018026
118	0x3de8c761	0.113661535
119	0x3dfbc48e	0.12293349
120	0xba95b2e1	-0.0011421108
121	0x3d236f34	0.039900973
122	0x3d1d24a5	0.038365025
123	0x3dd3ede8	0.103481114
124	0x3d44d1a6	0.0480515
125	0xbdcbed68	-0.09957391
126	0x3dbe9005	0.09304813
127	0x3e02f768	0.1278969
128	0xbe6a0b92	-0.22855976
129	0xbd2ff6e7	-0.042960074
130	0xbe13bf21	-0.14428379
131	0xbe0e0d02	-0.1387215
132	0xbe3ecde1	-0.18633224
133	0x3cea37e6	0.028591108
134	0xbd7eeb45	-0.06223609
135	0xbcfd7297	-0.03093843
136	0xbdfc5e83	-0.12322714
137	0xbd3b2ba9	-0.045695934
138	0x3e14cc4a	0.14531055
139	0x393474c7	0.0001720964
140	0x3c922d16	0.017843764
141	0x3c9e5f22	0.019332472
142	0x3da9e843	0.082962535
143	0xbe74ae48	-0.23894608
144	0xbd25c16f	-0.040467676
145	0xbd0050f1	-0.03132719
146	0x3e0ef658	0.1396116
147	0xbe5cf213	-0.21576719
148	0xbd6a57af	-0.057212528
149	0x3de88f23	0.11355426
150	0xbd031701	-0.03200436
151	0x3e23aecf	0.15984653
152	0xbbe6d8d8	-0.0070448928
153	0xbc714a61	-0.014727206
154	0x3b51d725	0.0032019105
155	0x3d77ccd3	0.06049807
156	0x3cce1627	0.025157047
157	0xbdef10d1	-0.11673129
158	0xbdab3b02	-0.08360864
159	0x3d6baab1	0.05753583
160	0xba9071d2	-0.0011020249
161	0x3d9344f3	0.071908854
162	0x3b87efaa	0.004148443
163	0xbdb86f22	-0.09005572
164	0xbdb1e25c	-0.08685753
165	0x3bc3a44a	0.0059705125
166	0xbda156e0	-0.07877898
167	0x3ddac0bf	0.10681295
168	0xbd30358d	-0.04301982
169	0xbd881790	-0.06645119
170	0x3e4d473d	0.20046706
171	0xbc5e5d23	-0.01357201
172	0xbd9bbc3f	-0.076042645
173	0xbe08082d	-0.13284369
174	0xbd363669	-0.044485483
175	0xbdb52de1	-0.08846641
176	0x3dc0ef7f	0.0942068
177	0x3df12a14	0.11775604
178	0x3dc91100	0.098176956
179	0x3cb755ab	0.022379717
180	0x3b8a65ef	0.004223577
181	0xbc30505e	-0.0107613485
182	0xbd90fd1b	-0.07079526
183	0x3de5d7c2	0.11222793
184	0xbcfd1a17	-0.03089623
185	0x3d66db95	0.056361753
186	0x3c2e31d0	0.010631993
187	0x3dcf9729	0.101362534
188	0x3dad7348	0.08469254
189	0x3d4df842	0.050285585
190	0xbd9db407	-0.07700353
191	0x3e20c964	0.15701824
192	0xbce1288c	-0.027485155
193	0x3d8d6b60	0.06905246
194	0xbc694847	-0.014238424
195	0xbdefc79a	-0.11707993
196	0x3e06b239	0.13153924
197	0x3caa207e	0.020767447
198	0xbde0500e	-0.10952769
199	0x3e1f142b	0.15535037
200	0x3c80dd53	0.015730536
201	0x3d82c59f	0.063853495
202	0xbdbffe3a	-0.09374662
203	0x3da03bbb	0.07823893
204	0xbdfd4691	-0.12366975
205	0xbde56d8f	-0.11202537
206	0xbdedabe3	-0.116050504
207	0x3ae70649	0.0017625774
208	0x3ca6c242	0.020356301
209	0x3e0393b2	0.1284931
210	0xbd81493c	-0.063127965
211	0xbdf71e2c	-0.12066302
212	0xbc73711e	-0.014858512
213	0x3d9e30ad	0.07724128
214	0x3d8487c4	0.06471208
215	0x3d9bbf7e	0.076048836
216	0xbcdb71d1	-0.02678767
217	0xbe07d955	-0.132665
218	0xbe0f137c	-0.13972276
219	0x3c9420a0	0.018081963
220	0xbd10e85b	-0.03537784
221	0xbce97d26	-0.028502058
222	0x3dcf0f1d	0.101103045
223	0x3dde6483	0.10859015
224	0x3cc906e5	0.02453942
225	0x3d44a3a9	0.04800764
226	0xbd19e40c	-0.037570998
227	0xbe180951	-0.14847304
228	0x3da16584	0.07880691
229	0x3e1f1900	0.1553688
230	0xbc5bb7db	-0.013410534
231	0xbdf16159	-0.11786146
232	0xbd8cc566	-0.06873588
233	0x3bca6d4d	0.0061775804
234	0xbdaa5b91	-0.08318246
235	0x3df51cc7	0.119683795
236	0x3d921f72	0.07134904
237	0xbd29ab5a	-0.04142318
238	0x3d3bf7ca	0.045890607
239	0x3df2e33d	0.118597485
240	0xbd20c38a	-0.03924898
241	0x3d4a5a51	0.04940254
242	0x3d932110	0.071840405
243	0x3d2fc80c	0.04291539
244	0xbd0f22f6	-0.03494545
245	0xbbe82cff	-0.007085442
246	0x3ce089ba	0.027409423
247	0x3e9578fb	0.29193863
248	0x3deb64b9	0.11493821
249	0x3d851595	0.06498257
250	0x3d561b7e	0.052272312
251	0xbdaf4beb	-0.08559402
252	0xbd83eea0	-0.064419985
253	0xbe3ba651	-0.18325163
254	0xbdaa6f3f	-0.08322
255	0x3d20c223	0.039247643

network_body._body_endoder.seq_layers.2.bias f4 [128]
0	0xbc813ce7	-0.01577611
1	0x3b8fbb86	0.004386368
2	0x3c83efa4	0.01610548
3	0x3d8d3bac	0.06896147
4	0x3cc6d8a3	0.024273222
5	0x3d0ff1ad	0.03514259
6	0xbc611a14	-0.013739128
7	0x3cc51446	0.024057519
8	0xbcb8d6ec	-0.02256342
9	0xbd686cb6	-0.0567443
10	0x3d66c76d	0.05634253
11	0xbd379046	-0.044815324
12	0xbcee7556	-0.029108685
13	0x3cbb3d73	0.02285645
14	0x3c1a65a1	0.009423644
15	0xbbd84ae9	-0.006600727
16	0x3c1fcbc0	0.009753168
17	0x3a88385a	0.0010392771
18	0x3cc70dc5	0.024298558
19	0xbc1806d2	-0.00927897
20	0x3d12cade	0.035838
21	0x3bad9e60	0.005298421
22	0xbd271150	-0.040787995
23	0x3d771db2	0.060331054
24	0xbd4846da	-0.048895694
25	0x3ccff76d	0.025386536
26	0x3d0e857d	0.034795273
27	0xbd3a8801	-0.04553986
28	0xbc8194a6	-0.015817951
29	0x3d06d3d3	0.032916855
30	0x3d83890e	0.064226255
31	0x3d0ee69a	0.034887888
32	0xbd28d4d8	-0.04121861
33	0xbd1d1744	-0.038352266
34	0x3cad5dc6	0.021162879
35	0xbd0f6330	-0.035006702
36	0x3ce43a9a	0.027859975
37	0x3d435d24	0.047696248
38	0xbcbdf325	-0.02318723
39	0x3d134679	0.03595588
40	0xbb4aa8f3	-0.0030923455
41	0xbd11fa60	-0.035639167
42	0xbbabc4bc	-0.0052419584
43	0x3b277c67	0.0025556327
44	0xbc8f08cb	-0.017460248
45	0x3c3ca307	0.011513478
46	0xbb5e650a	-0.0033934736
47	0x3d1ed2d2	0.038775273
48	0x3bbecb4c	0.0058225747
49	0xbc83b6e8	-0.016078427
50	0xbd2989b0	-0.041391075
51	0xbc34833c	-0.011017617
52	0x3b1cd9a2	0.002393343
53	0xbd2f3d7e	-0.042783253
54	0xbd0cf591	-0.034413878
55	0xbcbd273d	-0.02309
56	0x3c7f0b27	0.015566624
57	0x3ca13344	0.019677766
58	0x3d0531d1	0.03251821
59	0xbc6e39ed	-0.014540178
60	0xbcae1da3	-0.021254366
61	0xbd0d1873	-0.034447145
62	0x3c65a947	0.01401741
63	0x3b8ec671	0.004357152
64	0x3cd7dbd3	0.026349938
65	0x3cc8a252	0.024491463
66	0xbc3e46fd	-0.011613605
67	0x3d126061	0.035736445
68	0x3cd6bf78	0.026214346
69	0x3c7f55f8	0.015584461
70	0x3cab83ae	0.020936813
71	0xbd0190ae	-0.031632118
72	0xbb91cc42	-0.0044493983
73	0x3d978ffd	0.074005105
74	0x3c1ca918	0.0095617995
75	0x3c4aedb9	0.012385779
76	0xbbeb427b	-0.007179556
77	0x3cbf1415	0.023325006
78	0x3d03d2cf	0.032183465
79	0xbbf22cf2	-0.007390612
80	0xbbf3f971	-0.007445507
81	0xbd32960f	-0.04360014
82	0xbc1bc83b	-0.009508188
83	0xbc6a5110	-0.014301553
84	0xbd0e6c06	-0.034770988
85	0xbcf86f79	-0.030326592
86	0x3d02c77d	0.031928528
87	0x3ce3f13a	0.027824987
88	0xbc61f995	-0.013792415
89	0x3cd7d311	0.026345761
90	0x3c861201	0.016366007
91	0xbd351cef	-0.044217046
92	0xb9c9cd78	-0.00038490794
93	0x3b8e292e	0.004338405
94	0x3c8edc07	0.017438902
95	0x3cb0464c	0.021517895
96	0x3ca94e0a	0.020667095
97	0x3b7265cb	0.0036986943
98	0x3d00ea34	0.031473354
99	0xbcef349a	-0.029199887
100	0x3d8370a5	0.064179696
101	0xbd10ffd8	-0.03540024
102	0xbc7d7d5b	-0.015471782
103	0x3c4471c1	0.011990012
104	0x3b315f26	0.002706477
105	0xbcd84142	-0.026398305
106	0x3d895e72	0.06707467
107	0xbb17bc31	-0.0023152942
108	0x3b29c311	0.0025903622
109	0x3cd36aeb	0.025807818
110	0x3bd6eba4	0.0065588523
111	0xbcca1a7c	-0.024670832
112	0xbbd29162	-0.0064260224
113	0x3c102eb5	0.008800198
114	0xbc915d1b	-0.017744591
115	0xbd1b6391	-0.03793675
116	0xbcc19623	-0.023631161
117	0xbcb0724e	-0.02153888
118	0xbc955a87	-0.018231643
119	0xbce542d4	-0.027985968
120	0x3ccf4d3d	0.025305385
121	0xbcd1d39b	-0.025613597
122	0x3cdbc067	0.026825143
123	0xbcc308e7	-0.023807956
124	0x3cf6e1c1	0.030136945
125	0x3c500bd1	0.01269813
126	0xbba9c350	-0.005180754
127	0xbbd4a1dd	-0.006489022

action_model._continuous_distribution.log_sigma f4 [1, 2]
0	0xbe1697ce	-0.14706346
1	0xbe2a74c6	-0.16646108

action_model._continuous_distribution.mu.weight f4 [2, 128]
0	0x3c74afa3	0.014934453
1	0x3cf8152e	0.030283537
2	0x3d1af869	0.03783456
3	0xbc89b337	-0.01680909
4	0xbda8945d	-0.08231423
5	0x3c9fa4fa	0.019487847
6	0xbd2cc533	-0.04218025
7	0xbd8c63cf	-0.068549745
8	0x3b5cf7fb	0.0033717144
9	0xbbb361c3	-0.0054743006
10	0x3dbafdbe	0.09130429
11	0x3c5ba483	0.013405922
12	0x3c462737	0.0120943105
13	0xbd98eb2e	-0.07466732
14	0xbd108893	-0.035286497
15	0x3c88ef2b	0.016715607
16	0x3d52df20	0.05148232
17	0xbd088946	-0.03333404
18	0xbdcd4913	-0.100237034
19	0x3cfaba92	0.030606542
20	0x3c7c3a51	0.015394763
21	0xbc868fd1	-0.016425999
22	0x3c2beb95	0.010493179
23	0x3dba0e8d	0.090848066
24	0xbbc53b0a	-0.006019001
25	0x3bc068a4	0.005871849
26	0x3d6dfd51	0.05810291
27	0xbb383403	-0.0028107173
28	0x3b5eefd0	0.003401745
29	0xbd7c9ef3	-0.061675023
30	0xbca3f278	-0.020013079
31	0x3d7c9827	0.06166854
32	0xbba62eee	-0.0050715124
33	0x3ba9e0ef	0.005184285
34	0x3c79ac6a	0.015238861
35	0x3c4b51ef	0.012409671
36	0x3c8e8d46	0.017401349
37	0xbd729158	-0.05922064
38	0x3c4d7bb2	0.012541698
39	0xbdcab27c	-0.098973244
40	0x3ccb5f8c	0.024825834
41	0x3a2e13be	0.0006640515
42	0x3cc97a39	0.024594413
43	0xbcb76d0b	-0.022390863
44	0x3c502d7e	0.012706159
45	0x3a3ed30e	0.00072793744
46	0xbca3b0be	-0.019981738
47	0xbdc522c1	-0.096257694
48	0x3c54aa3d	0.012980041
49	0x3c8649b2	0.016392563
50	0xbc216ec0	-0.009853065
51	0x3ccfbc26	0.02535827
52	0xbcbc1703	-0.022960192
53	0x3cce8615	0.02521042
54	0x3baeb876	0.005332048
55	0x3c1030d8	0.008800708
56	0xbd271828	-0.04079452
57	0xbda74ab4	-0.08168545
58	0x3d2cbded	0.042173315
59	0xbce2cb96	-0.027684968
60	0x3d026b0d	0.031840373
61	0xb9e7288f	-0.00044089972
62	0xbc749186	-0.014927274
63	0xbd212f6e	-0.039351873
64	0xbcd9a9a3	-0.026570147
65	0xbd7724a1	-0.060337666
66	0x3beba9d4	0.007191876
67	0xbdac00c1	-0.08398581
68	0x3cc6353c	0.024195306
69	0xbbe9e38a	-0.0071377205
70	0x3c9bfe44	0.019042142
71	0x3aa9b0d6	0.0012946378
72	0xbca09643	-0.0196029
73	0xbd7c4906	-0.061593078
74	0xbcbc8444	-0.023012288
75	0x3d8e8bca	0.069602564
76	0x3cdd9db9	0.027052747
77	0x3ba53dfd	0.00504279
78	0xbbb5d3ae	-0.005548916
79	0x39fc9635	0.00048177099
80	0xbcbcbe7f	-0.023040054
81	0x3bc7d950	0.0060989037
82	0xbc41051e	-0.011781005
83	0xbc0f5c4c	-0.008750033
84	0xbb86d53c	-0.004114775
85	0xbb1c57ea	-0.0023856112
86	0x3d60155a	0.054707862
87	0x3bb20f16	0.0054339273
88	0xbd0ca4d4	-0.03433688
89	0x3cdf7cb0	0.027281135
90	0x3cb77f3b	0.022399535
91	0x3b890560	0.004181549
92	0xbd1b4017	-0.037902918
93	0x3afc3719	0.0019242495
94	0x3d378e70	0.044813573
95	0xbcc217c5	-0.023692975
96	0x3c689bae	0.014197273
97	0xbd9a2ad2	-0.075276986
98	0xbd7ba160	-0.061433196
99	0x3abf04e2	0.0014573599
100	0x3ceb1968	0.028698638
101	0xbb757afb	-0.0037457335
102	0xbbf43f4a	-0.0074538337
103	0xbcbd2a3c	-0.023091428
104	0x3bc9ac46	0.00615457
105	0xbac942d2	-0.0015354997
106	0x3dd26ab9	0.10274262
107	0xbc9fed54	-0.019522347
108	0xbd9ae44f	-0.07563078
109	0x3d0f8d76	0.035047017
110	0x3d37be4a	0.04485921
111	0x3a32c1cf	0.0006819041
112	0x3c7db40a	0.015484819
113	0xbcaec902	-0.021336082
114	0x3a2953cb	0.00064593245
115	0x3b6717dd	0.0035262026
116	0xbc74d990	-0.014944449
117	0xbad3f8c5	-0.0016172162
118	0xbcf77d6e	-0.030211177
119	0xbc979dc4	-0.018507846
120	0x3d56f7fd	0.052482594
121	0xbd189a07	-0.037256267
122	0x3da14621	0.07874704
123	0x3a9197c5	0.0011107853
124	0x3d731674	0.059347585
125	0xbcc63864	-0.024196811
126	0xbc7a01a1	-0.015259177
127	0x3d3dcc9f	0.04633772
128	0xbd00cfea	-0.031448282
129	0x3cab4b83	0.02091003
130	0x3c96df06	0.018416893
131	0x3da2e8d6	0.07954566
132	0xbca3d244	-0.019997723
133	0x3d4fed58	0.050763458
134	0xbc6b555d	-0.014363614
135	0x3bf50819	0.007477772
136	0x3bbff79c	0.0058583748
137	0xbbdd887c	-0.006760655
138	0xbe0b7c73	-0.13621692
139	0xbb9eaa6f	-0.0048420946
140	0xbc3debb5	-0.0115918415
141	0x3a986b98	0.0011628745
142	0xbc0b4ab3	-0.008501696
143	0xbdc77cc0	-0.09740591
144	0xbce244a6	-0.027620625
145	0xbd840895	-0.064469494
146	0xbb9bc672	-0.004753881
147	0xbd00cadf	-0.031443473
148	0xbe0de040	-0.13855076
149	0x3c62ad4b	0.013835262
150	0xbb87d228	-0.0041449256
151	0x3ccb38c9	0.02480735
152	0xbbf9a3ee	-0.007618419
153	0x3d54899c	0.051889047
154	0x3ce87a8a	0.028378744
155	0xbbd7c59c	-0.006584836
156	0x3b02380b	0.001986983
157	0xbdf90857	-0.12159794
158	0x3da86577	0.08222478
159	0x3d11b3e5	0.03557195
160	0xbbd4dcea	-0.0064960616
161	0xbc5cda84	-0.013479833
162	0x3ca57441	0.020197036
163	0xbc8b5b1e	-0.017011221
164	0x3d0d91c0	0.034562826
165	0x3dd9e78f	0.106398694
166	0x3aad210f	0.0013208705
167	0x3c25b03c	0.010112818
168	0xbd5dcf7b	-0.054152947
169	0xbcab63c2	-0.020921592
170	0xba4b4607	-0.00077542703
171	0x3c16e66a	0.009210208
172	0x3bfe7fbe	0.007766693
173	0x3bdb155a	0.006685895
174	0xbd6f1ce3	-0.058377158
175	0x3d1c4e2a	0.03816048
176	0x3b10115c	0.0021983003
177	0xbd15bd19	-0.03655729
178	0xbbded9ce	-0.0068008667
179	0x3b9033bd	0.004400699
180	0x3bd6869a	0.0065468075
181	0x3b34f385	0.002761097
182	0xbc8e8971	-0.017399522
183	0xbc8b06b6	-0.016970973
184	0xbd0a42fe	-0.033755295
185	0x3cf07c2a	0.029356081
186	0x3ced9e89	0.02900626
187	0xbcf75928	-0.03019388
188	0xbb9b1377	-0.004732545
189	0xbb88ab47	-0.0041708085
190	0x3d0e59f9	0.034753773
191	0x3cac7ecd	0.021056557
192	0x3ce8ca6d	0.028416837
193	0x3cb42331	0.021989437
194	0xba648e4b	-0.0008718713
195	0x3c8855de	0.016642507
196	0x3c50eb9d	0.012751487
197	0x3b9bcf32	0.004754924
198	0xbda626cc	-0.08112869
199	0xb940f136	-0.00018400405
200	0x3cbaa97f	0.0227859
201	0xbdcc6113	-0.09979453
202	0x3c138c5f	0.009005635
203	0xbd52e8bf	-0.051491495
204	0x3c0d5a72	0.008627521
205	0x3d26e3de	0.040744655
206	0x3c6c86da	0.014436448
207	0x3a28dfd2	0.0006442043
208	0xbad499a7	-0.0016220108
209	0xbb632a74	-0.0034662755
210	0xbdb616c8	-0.08891064
211	0xba60ae77	-0.0008570919
212	0xbb31e81f	-0.0027146412
213	0xbb186894	-0.0023255693
214	0x3d2b47d0	0.041816533
215	0x3d8e361d	0.06943915
216	0xbba6b651	-0.005087652
217	0xbde44682	-0.11146261
218	0x3c93e780	0.018054724
219	0xbc02c360	-0.007981151
220	0x3a1d348e	0.0005996906
221	0x3aa72ecb	0.0012755034
222	0xbd007eb4	-0.031370834
223	0x3d8c81b1	0.06860674
224	0x3d0582ac	0.03259532
225	0xbd040fb6	-0.032241546
226	0x3d8a51c2	0.06753875
227	0x3b2348bd	0.0024915182
228	0x3d982281	0.07428456
229	0x3c2e0474	0.010621179
230	0x3bc1ba8e	0.0059121316
231	0x3d0bc8f8	0.034127206
232	0x3cf68c4b	0.030096194
233	0x3beb2327	0.0071758213
234	0x3d53e6cc	0.051733777
235	0x3ce08c38	0.027410612
236	0xbce34761	-0.027743997
237	0x3cc64ba3	0.024205988
238	0xbc74c8e6	-0.014940476
239	0x3abd8741	0.0014459864
240	0x3cb892b2	0.022530887
241	0x3d1091df	0.035295364
242	0xbd84c850	-0.06483519
243	0x3b9a6801	0.0047121053
244	0xbc275cbe	-0.010214983
245	0xbb12fed9	-0.0022429733
246	0xbcea2abc	-0.02858483
247	0xbc18bbff	-0.0093221655
248	0x3c857c73	0.016294694
249	0xbc2c5ece	-0.01052065
250	0xbd085b48	-0.033290178
251	0xb9c7f02c	-0.0003813518
252	0x3c3b14e7	0.011418558
253	0x3cdaafe1	0.026695194
254	0xbd6b01dd	-0.057374824
255	0xbc9ca39d	-0.019120986

action_model._continuous_distribution.mu.bias f4 [2]
0	0x3bca0176	0.006164725
1	0x3cabe132	0.020981405

onnx::Div_51 f4 [8]
0	0x3d3e633c	0.046481356
1	0x3d41a730	0.047278583
2	0x3f0fc046	0.5615276
3	0x3e34234f	0.17591594
4	0x3f20791c	0.626848
5	0x3ee62bdc	0.44955337
6	0x3f17a2bf	0.59232706
7	0x3ef089ab	0.46980032
